people-and-planet-ai/weather-forecasting/serving/model/pytorch_model.bin (torch, 419279 bytes, 8 tensors)

layers.0.mean f4 [1, 1, 1, 52]
0	0x3f81d1d1	1.0142156
1	0x400fac89	2.2449057
2	0x40c66261	6.199509
3	0x43e7382a	462.43878
4	0x43cb8bcb	407.09213
5	0x43fb8536	503.0407
6	0x42dae2d9	109.44306
7	0x438f2a9d	286.33292
8	0x437cfc3a	252.98526
9	0x45a85017	5386.011
10	0x4508c5bd	2188.3586
11	0x45122753	2338.4578
12	0x451087d4	2312.4893
13	0x4519395b	2451.5847
14	0x4526c2ed	2668.1829
15	0x4529d5fb	2717.3738
16	0x45267ce4	2663.8057
17	0x45246424	2630.2588
18	0x452eb842	2795.516
19	0x43f83dcd	496.48282
20	0x43dca34d	441.2758
21	0x4401d1db	519.279
22	0x43113071	145.18922
23	0x438483ac	265.0287
24	0x437c46ff	252.27733
25	0x45992ce3	4901.611
26	0x45052d37	2130.826
27	0x450d44be	2260.2964
28	0x450b45d0	2228.3633
29	0x4510f4b6	2319.2944
30	0x45214861	2580.5237
31	0x4522aa32	2602.6372
32	0x451f235d	2546.2102
33	0x451d3e05	2515.8762
34	0x45289b3d	2697.7024
35	0x440b3016	556.75134
36	0x43f9ba4e	499.4555
37	0x440b0cf2	556.2023
38	0x4357e35e	215.88815
39	0x436da063	237.62651
40	0x4380da5a	257.70587
41	0x4583cad9	4217.356
42	0x44ff44a8	2042.1455
43	0x4505d57f	2141.3435
44	0x45035a45	2101.6418
45	0x45050ed9	2128.928
46	0x45196f62	2454.9614
47	0x45185189	2437.096
48	0x4514b459	2379.2717
49	0x45131f39	2353.9514
50	0x451fd539	2557.3264
51	0x44d6dbc2	1718.8674

layers.0.std f4 [1, 1, 1, 52]
0	0x404e5c1b	3.2243717
1	0x409c093e	4.876128
2	0x410374e7	8.216041
3	0x442010de	640.26355
4	0x4412daae	587.4169
5	0x44266a9f	665.66595
6	0x43793110	249.19165
7	0x43b73284	366.39465
8	0x43a3c8ee	327.56976
9	0x44f06d08	1923.4072
10	0x4384cb81	265.58987
11	0x43a65ab5	332.70865
12	0x43a9af36	339.36884
13	0x43f322e6	486.27264
14	0x43b35144	358.6349
15	0x43d6e675	429.80045
16	0x43dea1d4	445.26428
17	0x43db852b	439.04037
18	0x43c320e8	390.25708
19	0x44343bf6	720.9369
20	0x4423aab4	654.66724
21	0x4433c08b	719.0085
22	0x439afcc9	309.97488
23	0x43af41f3	350.51523
24	0x43a877e6	336.9367
25	0x44fbe3d7	2015.12
26	0x4393c6ed	295.5541
27	0x43b97c24	370.96985
28	0x43bb9036	375.12665
29	0x4400c693	515.1027
30	0x43b45643	360.67392
31	0x43e27a28	452.95435
32	0x43ea9f87	469.2463
33	0x43e850e5	464.632
34	0x43cf93d3	415.15488
35	0x444e0316	824.0482
36	0x443e127a	760.2887
37	0x4448b198	802.7749
38	0x43cadc67	405.7219
39	0x43a08e0b	321.1097
40	0x43b01f48	352.2444
41	0x44fbe7c9	2015.2433
42	0x43a1b024	323.3761
43	0x43ca0524	404.04016
44	0x43c963e6	402.78046
45	0x4402b61e	522.8456
46	0x43acb226	345.39178
47	0x43e4df78	457.74585
48	0x43ed8893	475.067
49	0x43ecd73f	473.6816
50	0x43d5496c	426.5736
51	0x44c854a1	1602.6447

layers.2.weight f4 [64, 52, 3, 3]
0	0xbbad95f2	-0.005297416
1	0xbc576423	-0.013146433
2	0xbaa2d343	-0.001242258
3	0xbc5c7c4a	-0.013457367
4	0x3bcf34b6	0.0063234223
5	0xbc91e40c	-0.017808937
6	0x3aeb1c26	0.0017937466
7	0xbc81f1a3	-0.015862292
8	0xbc13427b	-0.008988018
9	0x3c57749b	0.0131503595
10	0x3cdb22b1	0.02674994
11	0x3bf5d168	0.00750177
12	0x3c71cd7b	0.014758463
13	0x3ca70506	0.020388138
14	0x3c443095	0.0119744735
15	0x3a19fd6d	0.000587425
16	0x3c6ccfe0	0.014453858
17	0x3b03e813	0.002012734
18	0x3c869247	0.016427172
19	0xbc663827	-0.014051474
20	0x3c4e59ef	0.012594684
21	0xbc0a7357	-0.008450351
22	0xbbfddcc6	-0.0077472655
23	0x3cbe1d1a	0.023207236
24	0x3bc1b3f2	0.0059113437
25	0x3c085e36	0.008323243
26	0xbc121a4f	-0.008917405
27	0x3da12a4a	0.07869394
28	0x3d1bf966	0.03807964
29	0x3d9ce84b	0.07661494
30	0x3c8bf08c	0.017082475
31	0x3d4e5812	0.05037696
32	0x3d4dd1d0	0.05024892
33	0x3d7d7087	0.061874893
34	0x3d7f4471	0.06232113
35	0x3d25ecfe	0.040509216
36	0xbc8e13a5	-0.017343352
37	0xbcaec2b3	-0.021333074
38	0xbcc8f434	-0.024530508
39	0xbc5600c7	-0.013061709
40	0x3c98f23b	0.018670192
41	0xbd1abab1	-0.0377757
42	0xbc954711	-0.018222364
43	0xbd8f218a	-0.06988819
44	0xbb877e3b	-0.004134921
45	0x3ca44315	0.020051518
46	0xbb6cf807	-0.0036158578
47	0x3d661df4	0.05618091
48	0x3bcb761b	0.0062091476
49	0xbceb7221	-0.028740944
50	0x3d549b09	0.051905666
51	0x3d586c96	0.05283793
52	0x3d21c18d	0.039491225
53	0x3d5c86c7	0.05383947
54	0x3da4af95	0.08041302
55	0x3bff0b44	0.0077833254
56	0x3d4faad9	0.050700042
57	0xbcebd2a1	-0.02878696
58	0xbda5c49a	-0.080941394
59	0xbccab518	-0.024744555
60	0x3d8174e7	0.063211255
61	0x3c24844c	0.010041308
62	0x3dc40bc3	0.09572556
63	0xbdf2ac69	-0.11849291
64	0xbd95d84f	-0.07316648
65	0xbdc848d1	-0.097795136
66	0xbd08bd5f	-0.033383723
67	0xbdb429c1	-0.087970264
68	0xbd9bb8b6	-0.0760359
69	0xbdf9ddc4	-0.122005016
70	0xbdbc79c7	-0.09202915
71	0xbde65c2a	-0.11248048
72	0xbc85ad16	-0.016317885
73	0xbcdee3a7	-0.027208162
74	0xbccea413	-0.025224721
75	0xbcef0840	-0.029178739
76	0x3d326b22	0.0435592
77	0xbcec531b	-0.028848222
78	0xbc03aafa	-0.008036369
79	0x3cbf30f7	0.023338778
80	0xbd65524d	-0.05598669
81	0xbb275947	-0.0025535391
82	0x3c95e261	0.018296422
83	0x3d100a00	0.035165787
84	0x3d3308af	0.043709453
85	0xbc871f20	-0.016494334
86	0x3c8c70a2	0.017143551
87	0xbc977b63	-0.018491453
88	0x3d2f90bf	0.04286265
89	0xbb6850b4	-0.0035448493
90	0xbd051eaf	-0.032499965
91	0x3c98793b	0.018612495
92	0xbbdecd9e	-0.006799414
93	0xbca398e7	-0.01997037
94	0x3d06cdad	0.03291099
95	0xbc7b0fd7	-0.015323601
96	0xbd1535bd	-0.036428202
97	0x3d04f5fc	0.03246115
98	0xbcffb7b1	-0.03121552
99	0xbc907072	-0.017631743
100	0xbae0b9f5	-0.0017145263
101	0xbd545ca5	-0.051846165
102	0xbcc77dd5	-0.024351994
103	0x3cc888e2	0.024479333
104	0xbceec79c	-0.029147916
105	0x3c5fb14b	0.01365311
106	0xbcc73509	-0.024317281
107	0x3b9b9a18	0.004748594
108	0xbc0cc213	-0.008591193
109	0xbcad3cf1	-0.021147223
110	0xbd012d84	-0.031537548
111	0x3c068291	0.00820984
112	0xbc451d23	-0.0120308725
113	0xbd3659f9	-0.0445194
114	0xbd68e892	-0.05686242
115	0xbca67386	-0.020318758
116	0xbcf0e1f5	-0.02940462
117	0xbb96466c	-0.0045860317
118	0xbc0bb094	-0.008525986
119	0x3cc21760	0.023692787
120	0xbd255be6	-0.040370844
121	0xbcc0f336	-0.023553472
122	0x3bab005f	0.00521855
123	0x3bd03e7e	0.006355106
124	0x3b144fe9	0.0022630638
125	0x3c7991ec	0.015232544
126	0x3dfd0fb1	0.123565085
127	0x3e009c1b	0.1255955
128	0x3d9f39dc	0.07774708
129	0x3dec15bb	0.11527582
130	0x3d40cc1b	0.04706965
131	0x3dc651b2	0.09683551
132	0x3df3f341	0.119116314
133	0x3d9933fb	0.074806176
134	0x3dee62ce	0.11639939
135	0xbdc1bb62	-0.094595686
136	0xbd83b2b6	-0.06430571
137	0xbd9dfbb8	-0.07714027
138	0xbcc2fb67	-0.023801519
139	0xbd20e0ca	-0.039276876
140	0xbd8de460	-0.06928325
141	0xbdb81a4f	-0.08989393
142	0xbdac86a9	-0.08424122
143	0xbdad5f14	-0.084654
144	0xbc5ef76c	-0.013608795
145	0xbd40490d	-0.046944667
146	0xbcf234c0	-0.029566169
147	0xbd7ecc06	-0.06220629
148	0x3bc24290	0.005928345
149	0xbc20b14b	-0.009807895
150	0xbc6d0c68	-0.01446829
151	0xbd290ee9	-0.041273985
152	0xbd6093ea	-0.05482856
153	0x3ca972d2	0.020684633
154	0xbc7b01c5	-0.015320246
155	0x3cfe689d	0.031055743
156	0x3beaea98	0.007169079
157	0x3d2b6dd0	0.041852772
158	0x3c13147b	0.008977051
159	0x3b0ab18f	0.0021162962
160	0x3ce76562	0.028246585
161	0x3cd87243	0.026421672
162	0xbd56c133	-0.052430343
163	0xbd0ef5ef	-0.03490251
164	0xbd75a09d	-0.059967626
165	0xbd6a4e4f	-0.057203587
166	0xbcbda7d4	-0.023151316
167	0xbcf06909	-0.02934696
168	0xbcc80459	-0.024416136
169	0xbcf91f8f	-0.030410556
170	0xbc05deb1	-0.00817077
171	0xbd3ab507	-0.045582797
172	0xbd43583b	-0.047691565
173	0xbbb2909d	-0.005449368
174	0xbd1b77a0	-0.03795588
175	0xbce05ab1	-0.027386995
176	0xbd49e692	-0.049292155
177	0x3c86f7f2	0.016475651
178	0xbc6a12f7	-0.014286748
179	0xbd188df0	-0.037244737
180	0x3d979fb9	0.074035116
181	0x3d88b4cb	0.066751085
182	0x3a4c0e22	0.00077840884
183	0x3d158deb	0.036512297
184	0xbc8e8470	-0.017397135
185	0x3d87d08e	0.066315755
186	0xbb85e829	-0.0040865135
187	0x3d881d9e	0.06646274
188	0x3d51d52c	0.051228687
189	0xbd6144de	-0.054997317
190	0xbd92cbc3	-0.07167771
191	0x3beb049e	0.0071721813
192	0xbd32e6fc	-0.043677315
193	0xbcba7e3f	-0.022765277
194	0xbd93e4ee	-0.07221399
195	0xbce38996	-0.027775567
196	0xbd88e12d	-0.06683574
197	0xbcfea3ce	-0.031083968
198	0x3d0c0f55	0.03419431
199	0xbc71a4f5	-0.0147488015
200	0x3d191cc8	0.037380964
201	0xbcc85110	-0.024452716
202	0xbd11f188	-0.035630733
203	0x3c2c2aab	0.01050822
204	0x3d335755	0.04378446
205	0xbbf4a96d	-0.007466486
206	0x3c8fcc7d	0.017553562
207	0xbdc07806	-0.09397893
208	0xbd36972d	-0.044577766
209	0xbd9d5ad9	-0.076833434
210	0xbdc36472	-0.09540643
211	0xbd399bd1	-0.045314614
212	0xbdc5bb9b	-0.096549235
213	0xbdbb858e	-0.09156333
214	0xbdb2b4cd	-0.08725891
215	0xbda4fe29	-0.0805629
216	0x3c896a49	0.016774314
217	0x3c989848	0.0186273
218	0xbc263712	-0.010144966
219	0xbb5e34e8	-0.0033906046
220	0xbc0496d8	-0.008092605
221	0x3c9148ac	0.017734848
222	0x3cec4f0d	0.028846288
223	0x3c1e8e2b	0.00967745
224	0xbd091509	-0.033467326
225	0xbbefc01b	-0.007316602
226	0xbd2e3f6d	-0.042540956
227	0x3c189ecd	0.009315205
228	0xbd05eefe	-0.032698624
229	0xbda50ff5	-0.08059684
230	0xbd686765	-0.05673923
231	0x39459177	0.00018841574
232	0xbd2b5512	-0.041829176
233	0x3c6c166e	0.0144096445
234	0xbd3dcfba	-0.04634068
235	0xbd16cad2	-0.03681452
236	0xbd1b17ba	-0.037864424
237	0xbba5ee0d	-0.0050637783
238	0xbd9c7a56	-0.07640521
239	0xbce09e97	-0.027419372
240	0xbd042a9b	-0.032267194
241	0xbd5105b0	-0.051030815
242	0xbd5cf073	-0.053940248
243	0x3d1a32b8	0.037646025
244	0xbd51f1c5	-0.05125596
245	0x3cdbf547	0.026850356
246	0xbd455dbc	-0.048185095
247	0x3d081249	0.033220563
248	0xbbb8d111	-0.005640157
249	0xbc48d6d0	-0.012258247
250	0xbc9db534	-0.019251443
251	0x3c94fbe9	0.018186526
252	0x3dab07e0	0.083511114
253	0x3db093da	0.086219504
254	0x3c43fd42	0.011962237
255	0x3d62e168	0.055390745

layers.2.bias f4 [64]
0	0xbe8bf01e	-0.27331632
1	0xbf09e6f5	-0.5386804
2	0x3d90c788	0.070693076
3	0xbe8e3b1e	-0.27779478
4	0x3c00abf5	0.007853498
5	0x3e96bbef	0.29440257
6	0x3e04edc8	0.12981331
7	0xbf13812e	-0.5761899
8	0x3ee7159c	0.45133674
9	0xbe9cd8e3	-0.3063422
10	0x3e80aa7f	0.25130078
11	0x3f1a4e4e	0.60275733
12	0x3d1f8e52	0.038954087
13	0x3e033017	0.12811314
14	0x3dba0ec6	0.09084849
15	0x3f00a502	0.5025178
16	0xbe1f3c71	-0.155504
17	0xbf15fa92	-0.58585465
18	0xbec82a57	-0.39094803
19	0xbdc4018c	-0.095706075
20	0xbd907451	-0.070534356
21	0x3e89508c	0.26819265
22	0xbe504b1e	-0.20341155
23	0x3e87be8f	0.26512572
24	0xbd20d643	-0.039266836
25	0xbde8c652	-0.113659516
26	0x3e0abb7f	0.13548087
27	0xbe1dc158	-0.15405786
28	0xbe46bd94	-0.19408256
29	0x3eb6f71a	0.357354
30	0xbe252777	-0.16128336
31	0xbd35cec0	-0.044386625
32	0xbeaada64	-0.33369744
33	0xbeebd66b	-0.46062025
34	0x3e161c27	0.14659177
35	0xbebb7ea0	-0.36620045
36	0x3e23d962	0.16000894
37	0x3d9cb18d	0.076510526
38	0x3e2c6ad8	0.16837633
39	0xbe96c55d	-0.2944745
40	0x3e78e036	0.2430428
41	0xbe09c28e	-0.13453123
42	0xbef2e8d3	-0.47443256
43	0xbe03b668	-0.12862551
44	0xbec2541d	-0.37954798
45	0x3ea32b2d	0.31868878
46	0xbe1ace9e	-0.1511788
47	0x3ab41167	0.0013738096
48	0xbe1de416	-0.15419039
49	0x3d2c122c	0.042009518
50	0x3dd1ee47	0.10250526
51	0x3e88e24f	0.2673516
52	0x3e254cb9	0.16142549
53	0x3e853910	0.26020098
54	0xbe056a49	-0.13028826
55	0xbe915788	-0.28387094
56	0xbc618a3f	-0.013765871
57	0xbe4f5842	-0.20248511
58	0xbe456686	-0.19277391
59	0xbbf2c1dc	-0.0074083637
60	0xbea3576b	-0.31902632
61	0xbd86b7f6	-0.065780565
62	0xbe7d0b51	-0.24711348
63	0x3e2ff88c	0.17184657

layers.4.weight f4 [64, 128, 3, 3]
0	0x3d74000c	0.059570357
1	0x3c305287	0.010761864
2	0x3dbcc440	0.09217119
3	0x3cc96fc1	0.024589421
4	0x3dae49fd	0.08510206
5	0x3e3342b7	0.17505918
6	0x3db08203	0.08618548
7	0x3e1138ab	0.14181773
8	0x3e26b1f6	0.16278824
9	0x3dfcf6fd	0.12351797
10	0x3e02cfe3	0.12774615
11	0xbec9e06a	-0.39429027
12	0x3df79f16	0.1209089
13	0x3bb4efa5	0.005521732
14	0x3d1612b1	0.03663892
15	0x3e1a9c66	0.15098724
16	0x3d849262	0.06473233
17	0x3c66fe82	0.014098765
18	0xbce2aaed	-0.027669394
19	0xbd65b171	-0.056077424
20	0xbd25a957	-0.0404447
21	0xbbddd3b2	-0.006769621
22	0xbd890ed6	-0.06692283
23	0xbd4f6923	-0.050637376
24	0xbd343659	-0.043997142
25	0xbd27c681	-0.040960792
26	0xbcd70bdc	-0.026250772
27	0x3e17211e	0.14758727
28	0x3dbbadff	0.091640465
29	0x3e2bf644	0.16793162
30	0x3d89b283	0.067235015
31	0x3d63f4d8	0.055653423
32	0x3da3b006	0.07992558
33	0x3def4233	0.116825484
34	0x3e165286	0.14679918
35	0x3e1c20e6	0.15246925
36	0x3dca3eb7	0.09875243
37	0xbbe9ab15	-0.0071309903
38	0xbe96849d	-0.2939805
39	0xbcbce305	-0.02305747
40	0xbc855203	-0.016274458
41	0xbd916106	-0.07098584
42	0xbeb15629	-0.34636047
43	0xbba0d212	-0.004907855
44	0x3e0ea93a	0.13931742
45	0x3da77e43	0.081783794
46	0x3c6ae3bb	0.014336522
47	0x3d71d49f	0.059040662
48	0x3c14d095	0.009082933
49	0xbd46b004	-0.048507705
50	0x3d37a431	0.04483432
51	0xb9707ef7	-0.00022935482
52	0x3c43c7b6	0.01194947
53	0x3d56e01d	0.052459825
54	0x3d1b31d7	0.037889328
55	0x3c3c6004	0.011497501
56	0x3dd0101e	0.10159324
57	0x3cd614f5	0.02613304
58	0x3c3b1355	0.011418183
59	0x3d6fd80f	0.05855566
60	0x3ce74b0b	0.028234025
61	0x3c9bac68	0.019003108
62	0x3da0a7b0	0.07844484
63	0xbc8288ef	-0.015934436
64	0xbd662aa1	-0.056192998
65	0x3d479f9d	0.048736203
66	0xbd15b6fe	-0.036551468
67	0xbd447384	-0.047961727
68	0x3c5ee880	0.013605237
69	0x3d3dc707	0.046332385
70	0xbbcbd8ee	-0.0062209284
71	0x3d97b3c4	0.074073344
72	0x3ce95f67	0.028487874
73	0x3cac330c	0.021020435
74	0x3da2da4c	0.07951793
75	0x3d82bc59	0.06383581
76	0x3d01e4e2	0.03171242
77	0x3d7ec132	0.062195964
78	0x3d8f5de7	0.07000332
79	0x3dc2e51c	0.095163554
80	0x3dd812b0	0.10550439
81	0xbe1a50b2	-0.15069845
82	0xbc4dcd67	-0.012561179
83	0xbdd8aceb	-0.105798565
84	0xbd15f0ef	-0.036606725
85	0x3c529a8d	0.012854231
86	0xbc77609e	-0.015098719
87	0xbe04f4ab	-0.12983958
88	0x39ae65d5	0.00033263737
89	0xbe019e0f	-0.12657951
90	0xbcc783e4	-0.024354883
91	0x3b066972	0.0020509628
92	0xbca0e5a2	-0.019640747
93	0x3ba293e1	0.004961476
94	0xbc3c252c	-0.011483472
95	0x3c084a83	0.008318546
96	0x3d0a3d15	0.03374966
97	0xbbac4c71	-0.005258136
98	0x3cda23ca	0.026628394
99	0xbcf71c0f	-0.030164747
100	0xbd0be31f	-0.034152146
101	0x3ada702f	0.0016665513
102	0x3c39166d	0.011296851
103	0xbc0f1385	-0.008732681
104	0x3c9edf60	0.019393623
105	0xbc5acbd4	-0.0133542605
106	0x3b83da0b	0.0040237955
107	0xbc00a712	-0.007852333
108	0xbd2c122b	-0.042009514
109	0xbd97d5b0	-0.074138045
110	0xbd22f1a5	-0.03978123
111	0xbca8bfc2	-0.02059925
112	0xbcd3f683	-0.025874382
113	0xbd26b291	-0.040697638
114	0xbcdbf4f5	-0.026850203
115	0xbd1dfab7	-0.03856918
116	0xbba0cda4	-0.004907327
117	0xbe16effe	-0.14739987
118	0xbe1381ab	-0.14404933
119	0x3c8f8b5c	0.017522506
120	0xbdc88387	-0.09790712
121	0xbdf296e2	-0.11845185
122	0xbdafbf4d	-0.085814096
123	0xbcd8066a	-0.026370246
124	0xbd9497ed	-0.0725554
125	0xbda45c58	-0.08025426
126	0x3d9d4815	0.07679764
127	0x3cfbc14f	0.030731825
128	0x3d0c90fc	0.034317955
129	0x3a45e43e	0.00075489643
130	0x3db215a9	0.086955376
131	0x3d9b1006	0.075714156
132	0xbe5959a0	-0.21225595
133	0x3db2ba10	0.08726895
134	0x3df49e6f	0.11944281
135	0xbd138b99	-0.036021803
136	0xbd93791d	-0.07200835
137	0xbd84a507	-0.06476789
138	0xbd4bb85a	-0.04973636
139	0xbd96a1aa	-0.07355054
140	0xbd57aae8	-0.052653223
141	0xbd9a8fd9	-0.07546968
142	0x3ab4716f	0.0013766716
143	0x3c41c09a	0.011825705
144	0x3cc8bc1e	0.024503764
145	0x3d64f236	0.055895053
146	0x3dead54d	0.11466465
147	0x3bbb1113	0.0057088225
148	0x3da2c567	0.07947808
149	0x3da16c5d	0.07881997
150	0x3d022e20	0.03178227
151	0x3dc6dad8	0.0970971
152	0x3d8d27d7	0.068923645
153	0x3e0af298	0.13569105
154	0x3e243e83	0.16039471
155	0x3e45024b	0.19239156
156	0x3e24af5f	0.16082524
157	0x3d288900	0.04114628
158	0x3e12d625	0.14339502
159	0x3e5359f0	0.20639777
160	0x3e10307f	0.14081
161	0x3e375b48	0.17905915
162	0x3d4cdff1	0.050018255
163	0xbb9c43ea	-0.004768838
164	0x3dcab755	0.09898249
165	0x3dfbe039	0.122986265
166	0x3dea4bda	0.11440249
167	0x3ddfa231	0.109196074
168	0x3d7c3205	0.06157114
169	0x3d60bcf7	0.05486771
170	0x3c464aa3	0.012102756
171	0xbc8f5a8d	-0.017499233
172	0xbd03c655	-0.032171566
173	0xbdaa3827	-0.083114915
174	0x3c3503d1	0.011048273
175	0xbdcd8e28	-0.1003688
176	0xbd74c656	-0.05975946
177	0xbdb0bc37	-0.08629649
178	0xbd97a4b7	-0.07404464
179	0xbd602152	-0.054719277
180	0x3c9bb441	0.01900685
181	0x3be5acc6	0.0070091216
182	0x3d489ace	0.04897576
183	0x3d588717	0.052863207
184	0x3d813941	0.063097484
185	0x3d0b49d9	0.034005973
186	0x3daa3141	0.08310176
187	0x3d9a02fd	0.07520101
188	0x3da30b73	0.07961168
189	0x3e179b55	0.14805348
190	0x3e1573b7	0.14594923
191	0x3e023ff0	0.12719703
192	0x3e61f8cd	0.22067566
193	0x3e7a9814	0.24472076
194	0xbdf13681	-0.11777974
195	0x3da34a6f	0.079731815
196	0x3cfc575b	0.030803373
197	0x3db069ca	0.08613928
198	0xbdeb321b	-0.11484166
199	0xbd5ca118	-0.05386457
200	0xbde2d8d8	-0.11076516
201	0xbdba7b0a	-0.09105499
202	0xbc5e4164	-0.013565395
203	0xbdc548e2	-0.09633042
204	0xbe191100	-0.14947891
205	0xbde8bcf2	-0.113641635
206	0xbd7e8bcc	-0.06214504
207	0x3dcc1458	0.09964818
208	0x3d961c89	0.073296614
209	0x3ca5b271	0.020226689
210	0x3d1f97bd	0.03896307
211	0x3d169ba4	0.036769524
212	0x3d39525f	0.04524457
213	0xbb3e7b86	-0.0029065325
214	0x3d382d31	0.044964973
215	0xbb16b178	-0.0022993963
216	0x3d9450ff	0.07242011
217	0x3b882949	0.004155312
218	0xbd0880dc	-0.033326015
219	0x3d6bfc1b	0.057613473
220	0x3cebd440	0.028787732
221	0x3cea05bc	0.028567187
222	0x3da4fad7	0.080556564
223	0x3ca5610d	0.020187879
224	0xbc385293	-0.011250156
225	0x3d07e7eb	0.03318016
226	0x3d53d5aa	0.051717438
227	0x3ddbf5a3	0.10740211
228	0x3d245793	0.04012258
229	0x3e216d42	0.15764335
230	0x3e6e0958	0.23245752
231	0xbd5b0fe1	-0.05348194
232	0x3db95c92	0.090508595
233	0x3de7f1b5	0.11325399
234	0xbe3f02ed	-0.1865346
235	0xbdd16dce	-0.10226022
236	0xbda63666	-0.081158444
237	0xbe3a8e97	-0.18218456
238	0xbc9e9567	-0.01935835
239	0xbd7b8cef	-0.0614137
240	0xbe43a82d	-0.19107123
241	0xbe2b4569	-0.16725697
242	0xbdcaf0af	-0.09909188
243	0xbd1f4910	-0.038888037
244	0xbd8c8622	-0.06861521
245	0xbdfb069e	-0.122571215
246	0xbd59d9ee	-0.05318635
247	0xbdce9bcf	-0.10088312
248	0xbdb9ede6	-0.09078579
249	0xbe349a9b	-0.17637102
250	0xbe3f2874	-0.18667775
251	0xbe29bf39	-0.16576852
252	0x3e33f30a	0.17573181
253	0x3e1eb862	0.15500024
254	0x3e276842	0.16348365
255	0x3dec404e	0.11535703

layers.4.bias f4 [128]
0	0x3d8ef6b8	0.069806516
1	0x3e1312cf	0.14362644
2	0x3dadd6bd	0.08488224
3	0x3db282e3	0.08716371
4	0x3d8a084d	0.067398645
5	0x3d830995	0.06398312
6	0x3e77767a	0.24166289
7	0xbd9cf6a0	-0.076642275
8	0x3e6aa226	0.22913417
9	0xbd64a197	-0.055818167
10	0x3e2cae94	0.16863471
11	0x3e4db29a	0.20087662
12	0x3dad9fe6	0.08477764
13	0x3e88b8d8	0.26703525
14	0x3dce6590	0.10077965
15	0x3dbfd3ee	0.09366594
16	0x3e23479e	0.15945289
17	0x3d070921	0.03296769
18	0x3e1966d8	0.14980638
19	0x3ce49da0	0.027907193
20	0x3e253c50	0.16136289
21	0x3e4109db	0.18851416
22	0x3e649422	0.22322133
23	0x3be3d483	0.0069528236
24	0x3d8aa011	0.067688115
25	0x3e3ebf4f	0.18627666
26	0x3e6dd7a5	0.23226793
27	0x3e463875	0.19357474
28	0x3b98e035	0.0046653994
29	0x3d82daf0	0.06389415
30	0x3d12cd7c	0.035840496
31	0x3e6b85ce	0.23000261
32	0x3de80a6d	0.113301136
33	0xbd71327d	-0.05888604
34	0x3e3ec2f1	0.18629052
35	0x3e623062	0.22088769
36	0x3dbc3fc3	0.09191849
37	0x3e09a81a	0.13443032
38	0x3df56871	0.11982811
39	0x3d688a81	0.056772713
40	0x3d563069	0.05229226
41	0xbd51e501	-0.051243786
42	0x3adc7139	0.0016818411
43	0xbe076f63	-0.13226084
44	0x3e6574ba	0.22407809
45	0x3d3f7a35	0.046747405
46	0x3cf6e8e9	0.030140357
47	0x3e91dcab	0.2848867
48	0x3e15a7c0	0.14614773
49	0xbc375852	-0.011190491
50	0xbe1fc4fd	-0.15602489
51	0xbd6e2acd	-0.058146287
52	0x3db576bd	0.08860538
53	0x3dba6f84	0.09103301
54	0x3ded5a50	0.11589491
55	0xbb8f31db	-0.004369957
56	0x3cb0681a	0.021534014
57	0x3dee6c58	0.11641759
58	0x3c530fcf	0.012882187
59	0xbbec7f83	-0.007217349
60	0x3e45bec4	0.19311053
61	0x3b738309	0.003715696
62	0x3de0c75d	0.109755255
63	0x3d853ed0	0.06506121
64	0x3e30cb2d	0.17265005
65	0x3dc8a430	0.09796941
66	0x3dfa6539	0.12226338
67	0x3d229fb7	0.039703097
68	0x3e058e16	0.13042483
69	0x3df3df18	0.11907786
70	0xbc5f1f57	-0.013618312
71	0x3e438d3c	0.19096845
72	0x3e45b020	0.19305468
73	0x3d4af129	0.049546394
74	0x3df34d62	0.11879994
75	0x3d82205a	0.06353827
76	0x3e0ca3e8	0.137344
77	0x3db48643	0.08814671
78	0x3dbaeb2c	0.09126887
79	0x3e472997	0.19449459
80	0x3d66fefc	0.056395516
81	0x3e08776e	0.13326809
82	0x3c6cdb69	0.014456608
83	0x3ac54f3f	0.0015053524
84	0x3e6fdd60	0.23424292
85	0x3dac00ec	0.08398613
86	0x3def0580	0.11670971
87	0x3ccedc06	0.0252514
88	0x3e378b99	0.17924346
89	0x3d382a64	0.0449623
90	0x3e2f5111	0.17120768
91	0x3e87cbec	0.26522768
92	0xbc41eced	-0.011836273
93	0x3e013558	0.12618005
94	0x3d3f7aee	0.046748094
95	0x3e2bb466	0.16768035
96	0xbd0db356	-0.034594856
97	0x3e5e306a	0.21698156
98	0x3e113816	0.14181551
99	0x3e05b90d	0.13058873
100	0x3df517df	0.11967444
101	0xbcb8f8a3	-0.022579497
102	0x3e6bc58a	0.23024574
103	0xbc14e056	-0.009086689
104	0x3e1665dd	0.14687295
105	0x3d8fe731	0.07026518
106	0xbd21a177	-0.039460625
107	0x3eb0a705	0.34502426
108	0x3ce3c610	0.027804404
109	0xbe2f7f07	-0.17138301
110	0x3ce5a2b5	0.028031686
111	0xbd838fad	-0.06423888
112	0x3af76978	0.0018876037
113	0x3e063650	0.13106656
114	0x3e09fb70	0.13474822
115	0xbace4e89	-0.0015739958
116	0x3e86d039	0.26330736
117	0x3d28f966	0.04125347
118	0x3c95606f	0.01823446
119	0x3dac2fe8	0.08407575
120	0x3dd9bde3	0.10631921
121	0xbcf3d815	-0.029766122
122	0x3e4b2f48	0.19842255
123	0xbc9acad1	-0.018895539
124	0xbe03a7db	-0.12857
125	0x3caa2920	0.020771563
126	0x3e5461da	0.20740452
127	0xbe237844	-0.15963846

layers.7.weight f4 [2, 128]
0	0xbf8f6966	-1.120404
1	0xbf005474	-0.50128865
2	0x3d613397	0.05498084
3	0x3df2fecc	0.11865005
4	0x3eadb2dd	0.33925524
5	0x3eed7f2d	0.4638609
6	0x3d5e32ae	0.05424755
7	0xbee49be5	-0.44650188
8	0x3cc1b9df	0.0236482
9	0xbefd5b60	-0.49483776
10	0x3d276b51	0.04087383
11	0x3dc8aee9	0.097989865
12	0x3d9f58eb	0.07780632
13	0x3e325ee3	0.17419009
14	0x3f12e479	0.5737987
15	0xbeb135b0	-0.34611273
16	0x3f433ea3	0.7626745
17	0xbfc455d7	-1.5338696
18	0x3e823f3e	0.25438875
19	0x3e51bec8	0.20482934
20	0x3e2a2cdd	0.16618676
21	0x3f0b4679	0.5440441
22	0x3ebc512d	0.36780682
23	0xbec0b396	-0.37637013
24	0x3ec11c0c	0.3771671
25	0xbf9d7541	-1.2301408
26	0xbfaa2c27	-1.3294724
27	0xbf05fe17	-0.52340835
28	0xbec8b33d	-0.39199248
29	0xbf1bc71a	-0.6085068
30	0xbf102bad	-0.56316644
31	0x3dc7bf84	0.097533256
32	0x3c8b0cc4	0.01697386
33	0xbedab8b7	-0.4271905
34	0x3f14f7bf	0.5819053
35	0x402fad86	2.744966
36	0xbf3ebcfc	-0.7450712
37	0xbf89404c	-1.0722747
38	0x3fa1c75b	1.2638963
39	0x3e30fbcd	0.17283554
40	0xbf1ad2b7	-0.60477775
41	0xbf3baeaa	-0.7331339
42	0x3ee8f34b	0.45498118
43	0xbf11b386	-0.56914556
44	0x3ecbb22a	0.39784366
45	0xbed74035	-0.42041174
46	0xbe9d766c	-0.3075441
47	0x3ea7d923	0.3278285
48	0x3e74fed8	0.2392534
49	0xbf6c6e6b	-0.92355984
50	0xbfaccd5e	-1.3500173
51	0xbe9b04f2	-0.3027721
52	0x3f2decd4	0.67939496
53	0x3eb3cdfe	0.35118097
54	0xbc4820f4	-0.012214888
55	0xbefac951	-0.48981717
56	0x3f35b509	0.7097936
57	0x3e675c20	0.22593737
58	0xbf245ea2	-0.642069
59	0xbec0f7f2	-0.37689167
60	0x4022f8f4	2.546445
61	0xbf095f89	-0.536614
62	0xbfb3c4dd	-1.4044453
63	0xbf13bd77	-0.57710975
64	0x3e83dc4e	0.25754017
65	0xbf3959e3	-0.7240278
66	0x3fe20e81	1.7660676
67	0xbf4afdd8	-0.79293585
68	0x3f248486	0.64264715
69	0xbfb7d939	-1.4363166
70	0x3fd70832	1.6799376
71	0xbfc36c0d	-1.526735
72	0xbf5a1c58	-0.851995
73	0x40084316	2.1290946
74	0x401aa8d4	2.4165545
75	0x401c40ba	2.4414506
76	0xbf21a20a	-0.63137877
77	0x3e33c593	0.17555837
78	0x3f900330	1.1250973
79	0x3ef84706	0.48491687
80	0x3f087a69	0.53311783
81	0x3fcd8fc7	1.6059502
82	0xbedc9839	-0.43084887
83	0xbf00cd58	-0.5031333
84	0xbee129bc	-0.43977153
85	0xbf805228	-1.0025072
86	0x3f1021cf	0.5630159
87	0x3e9fdb4b	0.31221995
88	0x3ec454ef	0.3834605
89	0x3f8a1560	1.0787773
90	0x3fce1d3b	1.610267
91	0x3e879680	0.2648201
92	0xbf02595d	-0.5091761
93	0x3eed3f7d	0.463375
94	0x3f153fc2	0.5830041
95	0xbf68e468	-0.9097352
96	0x3f1030d5	0.5632451
97	0x3dbd0760	0.09229922
98	0xbf36e1ef	-0.714385
99	0x3ed0e6a4	0.40800965
100	0x40228b4b	2.5397518
101	0x3e2902c1	0.16504957
102	0x3ed27033	0.41101226
103	0xbf43fd20	-0.76558113
104	0x3edfd142	0.4371434
105	0xbf98bd62	-1.1932795
106	0xbf019330	-0.50615215
107	0xbf840b3b	-1.0315927
108	0x3dde3518	0.108499706
109	0xbeff4218	-0.49855113
110	0xbedd0792	-0.43169838
111	0xbef88341	-0.4853764
112	0x3ee9cd17	0.45664284
113	0x3ed9825f	0.42482278
114	0x3edfb618	0.43693614
115	0x3f81bb5c	1.0135303
116	0x3e8df797	0.2772796
117	0x3f923ac6	1.1424186
118	0x3fad6063	1.354504
119	0xbf066a55	-0.52506
120	0xbedc0904	-0.42975628
121	0xbef760ba	-0.48315984
122	0x3ec7da4b	0.39033732
123	0xbf857033	-1.0424865
124	0xbf22e5b8	-0.63631773
125	0x3f1e286a	0.61780417
126	0xbfdffeec	-1.7499671
127	0xbf05333d	-0.5203131
128	0xbe0f6526	-0.14003429
129	0xbceae1da	-0.028672148
130	0xbda463c0	-0.08026838
131	0x3c0e44b8	0.008683376
132	0x3d749d1f	0.059720155
133	0x3d33e006	0.043914817
134	0x3d89c4f5	0.0672702
135	0xbdc2783e	-0.094955906
136	0x3d816358	0.063177764
137	0xbda0dedb	-0.07855006
138	0xbcb02e1d	-0.021506364
139	0xbbf665ec	-0.0075194743
140	0xbd84dfd9	-0.06488008
141	0xbc56fe9d	-0.013122228
142	0x3dc744bd	0.09729908
143	0xbdf902db	-0.12158748
144	0xba52777d	-0.00080286694
145	0xbe30cab7	-0.1726483
146	0x3d6f8813	0.05847938
147	0xbce3353f	-0.02773535
148	0x3d12ed12	0.03587062
149	0x3d93ea5a	0.072224334
150	0x3c973399	0.01845722
151	0xbce29cd4	-0.027662672
152	0x3d5206d5	0.051276047
153	0xbe0d7f95	-0.138182
154	0xbe0eb472	-0.13936022
155	0xbd4559cc	-0.04818134
156	0xbd9332ef	-0.07187449
157	0xbdbe1138	-0.09280628
158	0xbd1d91fc	-0.0384693
159	0x3da4151e	0.0801184
160	0x3dbe44fd	0.09290502
161	0xbdb444b0	-0.088021636
162	0x3d885982	0.06657697
163	0xbd24b6ed	-0.040213514
164	0xbd3fc746	-0.0468209
165	0xbddbcb4f	-0.107321374
166	0x3da5ab7f	0.08089351
167	0x3da8d396	0.08243482
168	0xbd524aeb	-0.05134098
169	0xbd9907f8	-0.07472223
170	0x3d65d00a	0.056106605
171	0xbdf0cd3a	-0.11757894
172	0x3d88c7ad	0.0667871
173	0xbd9c8a79	-0.07643599
174	0x3df5a849	0.119949885
175	0x3d27ad83	0.040936958
176	0x3d338d51	0.04383594
177	0xbdc5d3d8	-0.096595466
178	0xbe0ebcfb	-0.13939278
179	0x3cc049f3	0.023472762
180	0x3ccd3b5e	0.025052723
181	0x3d874d26	0.06606512
182	0xbe621ef4	-0.2208212
183	0xbd5b2c0a	-0.053508796
184	0x3dae90b6	0.08523695
185	0xbd0a8be0	-0.0338248
186	0xbd973a0d	-0.07384119
187	0xbd38edff	-0.045148846
188	0x3da8ef27	0.0824874
189	0xbd1c992c	-0.038232014
190	0xbe3b86e6	-0.18313178
191	0xbd7cad15	-0.0616885
192	0x3d85ed64	0.06539419
193	0xbde47c63	-0.111565374
194	0x3d613ce9	0.05498973
195	0xbd82b682	-0.06382467
196	0x3ca4b7ef	0.020107238
197	0xbdca833e	-0.09888314
198	0x3e2b581f	0.16732834
199	0xbe0662f9	-0.13123693
200	0xbd946747	-0.07246261
201	0x3e23fb16	0.1601375
202	0x3db2f31e	0.08737777
203	0x3e5a40ec	0.21313828
204	0xbe1b5515	-0.15169175
205	0x3d43e297	0.047823515
206	0x3dde0fab	0.10842832
207	0x3d980c39	0.07424206
208	0x3db1a1cd	0.08673439
209	0x3df13018	0.11776751
210	0xbd5fad91	-0.054608885
211	0xbd2b9ec3	-0.041899454
212	0xbd26e70f	-0.0407477
213	0xbdec9281	-0.11551381
214	0x3d77abbd	0.060466517
215	0x3d3c46b6	0.045965873
216	0x3d089b14	0.03335102
217	0x3e794cc9	0.24345697
218	0x3da22bb5	0.07918493
219	0x3d7833e6	0.06059637
220	0xbd15e052	-0.03659088
221	0x3d504c96	0.050854288
222	0x3d2b4743	0.041816007
223	0xbe0ea530	-0.13930202
224	0x3e158516	0.1460155
225	0xbbebd1cb	-0.00719664
226	0xbd7a4fa7	-0.06111112
227	0x3d5b10e0	0.05348289
228	0x3e2fc754	0.17165881
229	0xbcaeafb3	-0.021324014
230	0x3d823da7	0.063594155
231	0xbe01ca18	-0.12674749
232	0x3dd71ca6	0.10503511
233	0xbddf0f16	-0.10891549
234	0xbd38ac62	-0.045086272
235	0xbdc99669	-0.098431416
236	0xbd4c8876	-0.049934827
237	0xbdbd19e5	-0.092334546
238	0xbddfa4ba	-0.10920091
239	0xbd6de5e9	-0.058080588
240	0x3d45132b	0.048113983
241	0xbcd66552	-0.02617136
242	0x3d98b4bf	0.074563496
243	0x3dbe33cc	0.09287223
244	0x3ce2825c	0.02765005
245	0x3e389af2	0.18027857
246	0x3dfeac33	0.12435188
247	0xbd0bf0a4	-0.03416504
248	0xbd29b5df	-0.04143321
249	0xbd9531d3	-0.07284894
250	0xbcb4ecc7	-0.02208556
251	0xbd811731	-0.063032515
252	0x3b14d8b2	0.0022712168
253	0x3d77e309	0.060519252
254	0xbe2e2415	-0.17005952
255	0xbd335f11	-0.043791834

layers.7.bias f4 [2]
0	0x3e69a237	0.22815786
1	0x3db57745	0.088606395
