people-and-planet-ai/weather-forecasting/serving/model/pytorch_model.bin (torch, 419279 bytes, 8 tensors)

layers.0.mean f4 [1, 1, 1, 52]
0	0x3f7fbcea	0.99897635
1	0x400db5be	2.2142177
2	0x40c69e28	6.206806
3	0x43e7382a	462.43878
4	0x43cb8bcc	407.09216
5	0x43fb8536	503.0407
6	0x42daeb84	109.45999
7	0x438f2a9d	286.33292
8	0x437cfb63	252.98198
9	0x45a85017	5386.011
10	0x4508c5bd	2188.3586
11	0x45122753	2338.4578
12	0x451087d4	2312.4893
13	0x4519395b	2451.5847
14	0x4526c2ed	2668.1829
15	0x4529d5fb	2717.3738
16	0x45267ce4	2663.8057
17	0x45246424	2630.2588
18	0x452eb842	2795.516
19	0x43f83dcd	496.48282
20	0x43dca34d	441.2758
21	0x4401d1db	519.279
22	0x431131e1	145.19484
23	0x438483aa	265.02863
24	0x437c446c	252.26727
25	0x45992ce3	4901.611
26	0x45052d37	2130.826
27	0x450d44be	2260.2964
28	0x450b45d0	2228.3633
29	0x4510f4b6	2319.2944
30	0x45214861	2580.5237
31	0x4522aa32	2602.6372
32	0x451f235d	2546.2102
33	0x451d3e05	2515.8762
34	0x45289b3d	2697.7024
35	0x440b3016	556.75134
36	0x43f9ba4e	499.4555
37	0x440b0cf2	556.2023
38	0x4357dfa8	215.87366
39	0x436d9f98	237.62341
40	0x4380da5b	257.7059
41	0x4583cad9	4217.356
42	0x44ff44a8	2042.1455
43	0x4505d57f	2141.3435
44	0x45035a45	2101.6418
45	0x45050ed9	2128.928
46	0x45196f62	2454.9614
47	0x45185189	2437.096
48	0x4514b459	2379.2717
49	0x45131f39	2353.9514
50	0x451fd539	2557.3264
51	0x44d6dbc2	1718.8674

layers.0.std f4 [1, 1, 1, 52]
0	0x404e812a	3.2266335
1	0x409c1c7b	4.8784766
2	0x4103dc5a	8.241297
3	0x442010de	640.26355
4	0x4412daae	587.4169
5	0x44266a9f	665.66595
6	0x43793049	249.18861
7	0x43b73283	366.39462
8	0x43a3c8eb	327.56967
9	0x44f06d08	1923.4072
10	0x4384cb84	265.58997
11	0x43a65ab5	332.70865
12	0x43a9af37	339.36887
13	0x43f322e5	486.2726
14	0x43b3514e	358.6352
15	0x43d6e675	429.80045
16	0x43dea1d4	445.26428
17	0x43db852b	439.04037
18	0x43c320eb	390.25717
19	0x44343bf6	720.9369
20	0x4423aab4	654.66724
21	0x4433c08b	719.0085
22	0x439afcc2	309.97467
23	0x43af41f1	350.51517
24	0x43a877e3	336.9366
25	0x44fbe3d7	2015.12
26	0x4393c6e8	295.55396
27	0x43b97c26	370.9699
28	0x43bb9037	375.12668
29	0x4400c693	515.1027
30	0x43b45645	360.67398
31	0x43e27a28	452.95435
32	0x43ea9f87	469.2463
33	0x43e850df	464.6318
34	0x43cf93d3	415.15488
35	0x444e0316	824.0482
36	0x443e127a	760.2887
37	0x4448b198	802.7749
38	0x43cadc67	405.7219
39	0x43a08e06	321.10956
40	0x43b01f48	352.2444
41	0x44fbe7c9	2015.2433
42	0x43a1b024	323.3761
43	0x43ca0524	404.04016
44	0x43c963e6	402.78046
45	0x4402b61e	522.8456
46	0x43acb22b	345.39194
47	0x43e4df78	457.74585
48	0x43ed8893	475.067
49	0x43ecd73f	473.6816
50	0x43d5496c	426.5736
51	0x44c854a1	1602.6447

layers.2.weight f4 [64, 52, 3, 3]
0	0xbb69d1d6	-0.003567805
1	0xbc35949a	-0.011082793
2	0x3a7cd52a	0.0009644801
3	0xbc4a353e	-0.0123417955
4	0x3bfbe651	0.007687368
5	0xbc6f1f94	-0.014594931
6	0x3b235f27	0.0024928541
7	0xbc5d41bd	-0.013504443
8	0xbc0199cb	-0.007910202
9	0x3c4e80f4	0.012603987
10	0x3cc1b44c	0.023645543
11	0x3c04bfa9	0.008102336
12	0x3c8e0cc7	0.017340077
13	0x3c83daea	0.016095597
14	0x3c70758b	0.014676462
15	0x3b1ccb21	0.0023924785
16	0x3c8c8d75	0.017157296
17	0x3b494010	0.003070835
18	0x3c77179e	0.015081314
19	0xbc70c8a3	-0.014696273
20	0x3c6a7514	0.01431014
21	0xbc1ecc85	-0.009692316
22	0xbbeb408e	-0.0071793264
23	0x3c98875d	0.018619234
24	0x3c2c9c1c	0.010535266
25	0x3be005c5	0.0068366253
26	0xbc367545	-0.011136358
27	0x3da7e047	0.081970744
28	0x3d3421e2	0.043977626
29	0x3da5a17e	0.08087443
30	0x3ccb9aa9	0.024854021
31	0x3d7e38c2	0.062065847
32	0x3d63dce2	0.055630572
33	0x3d8ae1d4	0.067813545
34	0x3d8a65c8	0.067576945
35	0x3d325e5e	0.043547027
36	0xbcb7403b	-0.022369495
37	0xbcc7f00c	-0.024406455
38	0xbcebb01a	-0.028770495
39	0xbc688d31	-0.014193819
40	0x3ca8e443	0.020616656
41	0xbd2c3b75	-0.04204889
42	0xbca8ac0a	-0.020589847
43	0xbd9829ad	-0.07429824
44	0xbc22bbec	-0.009932499
45	0x3c824b0b	0.015904924
46	0xbc1256c1	-0.008931817
47	0x3d511c6b	0.051052492
48	0x3b27b6d8	0.002559116
49	0xbd0b031c	-0.033938512
50	0x3d37fcf6	0.044918977
51	0x3d4a9d74	0.049466565
52	0x3d061c5f	0.0327419
53	0x3d48ac48	0.048992425
54	0x3da1fd2e	0.07909618
55	0x3af51bfb	0.0018700355
56	0x3d5f2141	0.054475073
57	0xbd063d45	-0.032773275
58	0xbdb6a155	-0.089174904
59	0xbce6fb17	-0.0281959
60	0x3d87f861	0.066391714
61	0x3b18d94b	0.0023322876
62	0x3dc82846	0.097733065
63	0xbdf64e1a	-0.120266154
64	0xbd895a6d	-0.067067005
65	0xbdd21bc1	-0.102592
66	0xbcecc56d	-0.028902734
67	0xbdabc2b7	-0.08386748
68	0xbd96bfc2	-0.07360794
69	0xbe029b8d	-0.1275465
70	0xbdb95e51	-0.090511926
71	0xbdf08777	-0.11744588
72	0xbc809902	-0.01569796
73	0xbca3cfb3	-0.0199965
74	0xbcbe14bf	-0.023203252
75	0xbcbad49e	-0.022806462
76	0x3d4c1084	0.049820438
77	0xbcb9ba2e	-0.022671785
78	0xbc02ec89	-0.007990965
79	0x3cdd613f	0.02702391
80	0xbd6178c9	-0.05504683
81	0xba9aec77	-0.001181974
82	0x3c8e1d2a	0.01734789
83	0x3d0dd2ce	0.034624867
84	0x3d3184ce	0.043339543
85	0xbc98e5b5	-0.01866422
86	0x3c901da6	0.017592262
87	0xbc7c5efc	-0.015403505
88	0x3d38c1c4	0.045106664
89	0xb9ea9dcc	-0.00044749526
90	0xbd0f65ca	-0.035009183
91	0x3c90b562	0.017664615
92	0xbc1af5fb	-0.00945806
93	0xbc900809	-0.017581956
94	0x3d18f4d1	0.03734285
95	0xbc69afff	-0.014263152
96	0xbd1b1de2	-0.037870295
97	0x3d02e571	0.031957094
98	0xbd0bb094	-0.034103945
99	0xbcae9066	-0.021309089
100	0xbb72b0a7	-0.0037031563
101	0xbd5b66f3	-0.053564977
102	0xbccbb140	-0.024864793
103	0x3cd2ca2f	0.025731174
104	0xbced6f9a	-0.02898388
105	0x3c3d4424	0.0115518905
106	0xbcd75bc0	-0.026288867
107	0x3aeaa5f7	0.0017902245
108	0xbc4c7d2e	-0.012481017
109	0xbcc01a65	-0.023450086
110	0xbd0890d0	-0.03334123
111	0x3bc5872c	0.0060280766
112	0xbc4bd3ef	-0.012440666
113	0xbd3b60bc	-0.04574655
114	0xbd72d965	-0.059289355
115	0xbcc04bae	-0.023473587
116	0xbd082355	-0.03323682
117	0xbbb422fa	-0.0054973336
118	0xbc401135	-0.0117228525
119	0x3cb627a1	0.022235693
120	0xbd3642c7	-0.044497278
121	0xbce051df	-0.02738279
122	0x3aed3784	0.001809821
123	0x3bbf2cb0	0.0058341846
124	0xba9266b3	-0.0011169523
125	0x3c5ee13e	0.013603507
126	0x3e079e01	0.13243867
127	0x3e07c336	0.13258061
128	0x3dab231d	0.08356307
129	0x3df8ad08	0.12142378
130	0x3d5c2b5a	0.05375228
131	0x3dcf9177	0.10135167
132	0x3e01e33a	0.12684336
133	0x3da2bbdf	0.0794599
134	0x3df70edf	0.12063383
135	0xbdcba66f	-0.09943854
136	0xbd903f7f	-0.07043361
137	0xbda7ebb6	-0.08199255
138	0xbcfdcb74	-0.030980803
139	0xbd3a8e8b	-0.045546096
140	0xbd9a4f44	-0.0753465
141	0xbdc06f86	-0.093962714
142	0xbdb99326	-0.090612695
143	0xbdb7f620	-0.089824915
144	0xbc565ebc	-0.01308411
145	0xbd41efc1	-0.047347788
146	0xbce9f2a7	-0.028558088
147	0xbd8288b0	-0.06373727
148	0x3b9522b0	0.004551254
149	0xbc2939ba	-0.0103287045
150	0xbc572041	-0.0131302485
151	0xbd2e3847	-0.04253414
152	0xbd5f13a3	-0.054462086
153	0x3ccb00ec	0.024780713
154	0xbc48f879	-0.012266272
155	0x3d1323ff	0.035923
156	0x3c14df3a	0.0090864245
157	0x3d30d42e	0.0431711
158	0x3c419990	0.011816397
159	0x3beb9dc2	0.007190437
160	0x3cf69782	0.030101541
161	0x3cf8208e	0.03028896
162	0xbd4cd21d	-0.050005067
163	0xbd01c6ac	-0.03168361
164	0xbd64ab53	-0.05582745
165	0xbd612405	-0.05496599
166	0xbca9d37c	-0.020730726
167	0xbcd8c7e4	-0.026462503
168	0xbcaa734c	-0.020806931
169	0xbcf02766	-0.029315662
170	0xbbd02b21	-0.0063527976
171	0xbd55b692	-0.052176066
172	0xbd51c210	-0.051210463
173	0xbc41e88c	-0.011835229
174	0xbd2702dd	-0.040774215
175	0xbcfee471	-0.031114789
176	0xbd5acb55	-0.05341657
177	0x3c280b26	0.010256564
178	0xbc8e4869	-0.017368512
179	0xbd2e9bee	-0.042629175
180	0x3d97d967	0.07414513
181	0x3d911952	0.070849076
182	0x3ab2636c	0.0013609952
183	0x3d2a8e53	0.041639637
184	0xbc4d20af	-0.012519999
185	0x3d8f8595	0.070079006
186	0xbb4ee56c	-0.0031569852
187	0x3d9299c4	0.07158235
188	0x3d59646a	0.053074278
189	0xbd745d89	-0.059659515
190	0xbd972247	-0.07379585
191	0x3b20445f	0.0024454815
192	0xbd34eaf8	-0.044169396
193	0xbcd3c959	-0.025852846
194	0xbd972b7c	-0.07381341
195	0xbd00f287	-0.031481292
196	0xbd89b8c1	-0.06724692
197	0xbd09728d	-0.03355651
198	0x3d1bce7d	0.03803872
199	0xbc5ea243	-0.013588491
200	0x3d29be9b	0.04144154
201	0xbccf20fb	-0.025284281
202	0xbd348abf	-0.04407763
203	0x3c0bc5b5	0.008531024
204	0x3d35abe5	0.044353385
205	0xbc3cc799	-0.011522197
206	0x3cbcfbe5	0.023069331
207	0xbdca1f95	-0.09869305
208	0xbd48229a	-0.048861124
209	0xbdad0f8f	-0.08450233
210	0xbdc47802	-0.09593202
211	0xbd39f256	-0.045397125
212	0xbdce0415	-0.10059372
213	0xbdc653aa	-0.096839264
214	0xbdb4d0af	-0.08828866
215	0xbdafedd7	-0.08590286
216	0x3c8dcbc1	0.017309071
217	0x3cb45765	0.02201433
218	0xbc28d77e	-0.010305284
219	0x3adcde35	0.0016850891
220	0xbac273d7	-0.0014835548
221	0x3cb1153c	0.02161657
222	0x3ce8fd5f	0.02844113
223	0x3c70626c	0.014671903
224	0xbcfe7a2a	-0.031064112
225	0xbbf8f048	-0.007597003
226	0xbd3a3cd0	-0.04546815
227	0x3c1492ff	0.00906825
228	0xbd08034b	-0.033206265
229	0xbda00c4b	-0.07814845
230	0xbd6cc88e	-0.05780845
231	0xb9dd63ef	-0.0004222686
232	0xbd309430	-0.043110073
233	0x3c5687d7	0.01309391
234	0xbd52b85c	-0.05144535
235	0xbd1f8639	-0.038946364
236	0xbd2b4353	-0.041812252
237	0xbbf59cab	-0.007495483
238	0xbda0ef5f	-0.078581564
239	0xbce74967	-0.028233243
240	0xbd199dca	-0.037503995
241	0xbd553ae8	-0.05205813
242	0xbd6bdfcd	-0.05758648
243	0x3d17f81d	0.037101854
244	0xbd4f2634	-0.050573543
245	0x3cdc2ab7	0.026875837
246	0xbd41d628	-0.047323376
247	0x3d0b1583	0.033956062
248	0xbb7886fc	-0.0037922254
249	0xbc5e7de8	-0.013579823
250	0xbc8f1c99	-0.017469691
251	0x3c962ece	0.018332865
252	0x3db8c122	0.09021212
253	0x3dbcd553	0.09220376
254	0x3c9b06bb	0.018924108
255	0x3d7f4e5c	0.06233059

layers.2.bias f4 [64]
0	0xbe8eec8c	-0.27914846
1	0xbf0e9288	-0.5569234
2	0x3d89f4c9	0.06736142
3	0xbe92f71c	-0.28704154
4	0xbb61782b	-0.00344039
5	0x3e9717ed	0.2951044
6	0x3deead4f	0.1165415
7	0xbf200178	-0.6250224
8	0x3f067dfb	0.5253598
9	0xbea76a1f	-0.3269815
10	0x3e8cfd62	0.27537066
11	0x3f1f25e1	0.62167174
12	0x3d526231	0.051363174
13	0x3e1acf09	0.1511804
14	0x3da0338f	0.07822334
15	0x3f0c0323	0.54692286
16	0xbe1d13f3	-0.15339641
17	0xbf1f6de6	-0.62277067
18	0xbed4f81e	-0.41595548
19	0xbda0ec5c	-0.07857582
20	0xbd816a62	-0.06319119
21	0x3e902071	0.2814975
22	0xbe5a2cbe	-0.2130613
23	0x3e8e1873	0.27753028
24	0xbd573500	-0.05254078
25	0xbdcf4ca2	-0.101220384
26	0x3e0dff00	0.13866806
27	0xbe11ea05	-0.14249428
28	0xbe43ad12	-0.1910899
29	0x3ecc8571	0.39945558
30	0xbe357e6a	-0.17724004
31	0xbd69d0a6	-0.05708375
32	0xbeb4b4bb	-0.35294136
33	0xbf01dde4	-0.50729203
34	0x3e260200	0.162117
35	0xbec55f15	-0.38549104
36	0x3e1fb19a	0.15595093
37	0x3da65022	0.08120753
38	0x3e35d9f2	0.17758921
39	0xbeb1d502	-0.34732825
40	0x3e88ef17	0.2674491
41	0xbe0b87c2	-0.13626006
42	0xbf04280b	-0.516236
43	0xbe0a699b	-0.13516848
44	0xbed109fe	-0.40827936
45	0x3eb42ace	0.35188907
46	0xbe0aff42	-0.13573936
47	0xba210a49	-0.0006143195
48	0xbe35f530	-0.17769313
49	0x3dc9ed5d	0.098597266
50	0x3e1faecc	0.15594023
51	0x3e935359	0.28774527
52	0x3e3dd86f	0.18539594
53	0x3e8e30be	0.27771562
54	0xbe11804e	-0.142091
55	0xbea00f7e	-0.3126182
56	0xbc2c6804	-0.010522846
57	0xbe60352f	-0.21895288
58	0xbe4f6d84	-0.2025662
59	0x3c7a4726	0.015275752
60	0xbeb9d2b7	-0.36293575
61	0xbd9abf5a	-0.07556029
62	0xbe6ad7a6	-0.22933826
63	0x3e3808e6	0.17972144

layers.4.weight f4 [64, 128, 3, 3]
0	0x3dbf597e	0.09343241
1	0x3d287e3e	0.04113602
2	0x3dadf993	0.08494868
3	0x3d4dab48	0.050212175
4	0x3dbba4a0	0.09162259
5	0x3e2c7a31	0.16843487
6	0x3d9ff886	0.07811074
7	0x3e006c9a	0.12541428
8	0x3e23fab8	0.1601361
9	0x3de9b155	0.114107765
10	0x3e0f014b	0.13965337
11	0xbee3036a	-0.44338542
12	0x3dea760e	0.114482984
13	0x3c3cd665	0.011525725
14	0x3d499deb	0.049222868
15	0x3e24d931	0.16098477
16	0x3d9da9a0	0.07698369
17	0x3cc2e38a	0.02379014
18	0xbd3391ae	-0.043840103
19	0xbd90bee8	-0.070676625
20	0xbd5d3ef7	-0.054015126
21	0xbc361563	-0.011113497
22	0xbd875df7	-0.06609719
23	0xbd7fd813	-0.062461924
24	0xbd49dbd7	-0.04928192
25	0xbd2c1b2e	-0.042018108
26	0xbd1364ef	-0.03598493
27	0x3e1e93fc	0.15486139
28	0x3dc6d4f5	0.09708587
29	0x3e4438ff	0.19162367
30	0x3d5c5c91	0.053799216
31	0x3d34eeae	0.044172935
32	0x3dabddff	0.08391952
33	0x3ddf65f2	0.109081164
34	0x3e0fc18a	0.14038673
35	0x3e148682	0.14504436
36	0x3dde7b4a	0.10863359
37	0xbb89537d	-0.004190861
38	0xbea01c05	-0.31271377
39	0xbc12cda2	-0.0089601595
40	0xbb0207bc	-0.0019841036
41	0xbd9781ed	-0.07397828
42	0xbecabed6	-0.3959872
43	0x3bbd9fb1	0.005786859
44	0x3e14a78a	0.14517036
45	0x3d9bf5dd	0.07615254
46	0x3c67d4b2	0.014149832
47	0x3d5ed7c3	0.054404985
48	0xbb07cf44	-0.0020722905
49	0xbd72d888	-0.05928853
50	0x3d13f67c	0.036123738
51	0xbc15e281	-0.009148241
52	0x3c1e12f9	0.009648078
53	0x3d586350	0.052829087
54	0x3ceb3a20	0.02871424
55	0x3c3c2462	0.011483284
56	0x3dd639a5	0.104602136
57	0x3c7a5034	0.015277911
58	0x3c502ed8	0.012706481
59	0x3d8597ba	0.0652308
60	0x3c317d86	0.01083315
61	0x3c5bed70	0.013423309
62	0x3dafa7df	0.08576941
63	0xbd0144ac	-0.03155963
64	0xbdb2be6c	-0.08727726
65	0x3cdc80b9	0.026916848
66	0xbd5646f4	-0.05231376
67	0xbd922634	-0.07136193
68	0xbbd08eea	-0.006364693
69	0x3cbf22aa	0.023331959
70	0xbcc4e830	-0.024036497
71	0x3d763b08	0.06011489
72	0x3cde00a6	0.027099919
73	0x3ce018f6	0.027355652
74	0x3db44ba4	0.0880349
75	0x3d85aca7	0.065270714
76	0x3d3e5fec	0.046478197
77	0x3dac2aac	0.084065765
78	0x3da1a6d0	0.07893145
79	0x3ded93ec	0.116004795
80	0x3e072057	0.1319593
81	0xbe066c0d	-0.13127156
82	0x3c3e8911	0.011629359
83	0xbdc57997	-0.09642332
84	0xbcef29ae	-0.02919468
85	0x3cd08feb	0.02545925
86	0xbc142eae	-0.009044332
87	0xbe00430a	-0.12525573
88	0x3c909618	0.017649695
89	0xbdfcf055	-0.12350527
90	0xbd1700b7	-0.036865916
91	0xbae78d4e	-0.0017666013
92	0xbc8e1468	-0.017343715
93	0x3b9fb9e7	0.004874456
94	0xbbe626c9	-0.0070236665
95	0x3c55e2ac	0.013054531
96	0x3d26e398	0.040744394
97	0xbc8ff456	-0.017572563
98	0x3cbc6713	0.022998368
99	0xbd211bed	-0.039333273
100	0xbd0887e2	-0.033332713
101	0x3a84da4e	0.0010135861
102	0x3c535ac8	0.012900062
103	0x3b99616a	0.004680802
104	0x3ca521e1	0.020157756
105	0x39d124ac	0.0003989091
106	0x3c80d09c	0.015724473
107	0xbb861a96	-0.0040925248
108	0xbd4925a8	-0.049108177
109	0xbd8e173d	-0.06938026
110	0xbca12fea	-0.019676168
111	0xbc201a98	-0.009771965
112	0xbaa4ebff	-0.0012582539
113	0xbcb7dae5	-0.022443244
114	0xbcc65ae4	-0.024213262
115	0xbd2e0687	-0.042486694
116	0xba79305b	-0.0009505802
117	0xbe304744	-0.17214686
118	0xbe254d44	-0.16142756
119	0xbba67e56	-0.0050809784
120	0xbe01ab03	-0.12662892
121	0xbe084409	-0.13307203
122	0xbdd0b7e0	-0.101913214
123	0xbd5f3db3	-0.0545022
124	0xbdac9d5c	-0.084284514
125	0xbd9d3ff0	-0.07678211
126	0x3d680171	0.056642
127	0x3cde2d2a	0.027121145
128	0x3d159ae8	0.036524683
129	0xbb09f6ba	-0.0021051602
130	0x3dd09aa6	0.10185747
131	0x3db1b1b6	0.08676474
132	0xbe7b7247	-0.24555312
133	0x3ddb3848	0.10704094
134	0x3df7d8f1	0.12101925
135	0xbd1f6636	-0.038915835
136	0xbd9f79f6	-0.07786934
137	0xbda48ffd	-0.08035276
138	0xbd587f0a	-0.05285553
139	0xbdb23e9b	-0.08703347
140	0xbd8489bd	-0.06471584
141	0xbdac0c8c	-0.084008306
142	0xbbfbb46a	-0.007681419
143	0xbb59c000	-0.0033226013
144	0x3c2cd83c	0.010549601
145	0x3d407519	0.046986673
146	0x3de257d8	0.11051911
147	0xbb407f04	-0.0029372582
148	0x3db08910	0.086198926
149	0x3d85c40d	0.06531534
150	0x3ca4fe73	0.020140862
151	0x3db36ba5	0.08760766
152	0x3da7f962	0.08201863
153	0x3e169581	0.14705469
154	0x3e200455	0.15626653
155	0x3e513e35	0.20433886
156	0x3e2d8b68	0.1694771
157	0x3d24f6a0	0.040274262
158	0x3e192db5	0.14958842
159	0x3e601045	0.21881206
160	0x3e0fe273	0.14051227
161	0x3e443b00	0.19163132
162	0x3d352dae	0.044233017
163	0xbc431c24	-0.011908565
164	0x3deba65f	0.11506342
165	0x3e06769b	0.13131182
166	0x3de50324	0.1118224
167	0x3deeb128	0.116548836
168	0x3d83d126	0.06436376
169	0x3d366de8	0.04453841
170	0x3b659c97	0.0035035962
171	0xbc9a4927	-0.01883371
172	0xbce364b4	-0.02775798
173	0xbdadc5bc	-0.084849805
174	0x3afbe76e	0.0019218752
175	0xbdd28833	-0.10279884
176	0xbd977ce9	-0.073968716
177	0xbdc1bc9f	-0.09459805
178	0xbdab389c	-0.08360407
179	0xbd94d4f2	-0.072671786
180	0x3b70e7a6	0.0036759167
181	0xbb5d2ffa	-0.003375052
182	0x3d2e7be4	0.04259862
183	0x3d21bab1	0.039484683
184	0x3d67354b	0.05644731
185	0x3cba6aaa	0.02275594
186	0x3d98c553	0.074595116
187	0x3d8b0d51	0.06789649
188	0x3d90a00f	0.07061779
189	0x3e33149d	0.17488332
190	0x3e1c6736	0.15273747
191	0x3de5d8a6	0.11222963
192	0x3e78ba40	0.24289799
193	0x3e920fbf	0.28527638
194	0xbded6a7a	-0.115925744
195	0x3d9e3d13	0.07726493
196	0x3cc1aa7b	0.023640862
197	0x3daf4207	0.085575156
198	0xbde427e1	-0.11140419
199	0xbd25b736	-0.040457927
200	0xbdcfb08f	-0.10141098
201	0xbd986330	-0.074407935
202	0x3bd55588	0.0065104403
203	0xbd952bd7	-0.072837524
204	0xbdff1606	-0.124553725
205	0xbdb9ae1a	-0.0906641
206	0xbd418950	-0.047250092
207	0x3dd451a3	0.103671335
208	0x3d9f7f10	0.07787907
209	0x3c92d874	0.017925479
210	0x3d106bb6	0.03525897
211	0x3ca53dab	0.020171007
212	0x3cfef5e8	0.031123117
213	0xbb439477	-0.002984313
214	0x3d0e7821	0.034782533
215	0xbc22c246	-0.009934014
216	0x3d7208cd	0.059090424
217	0x394062a4	0.00018347293
218	0xbcf28930	-0.029606432
219	0x3d368368	0.044558913
220	0x3cfbdf9c	0.030746274
221	0x3cb31447	0.021860255
222	0x3d5ef0cb	0.054428857
223	0x3bdb5ae3	0.006694184
224	0xbcf5e25f	-0.030015169
225	0x3d3013f4	0.04298778
226	0x3d84cbe4	0.064842016
227	0x3dffe406	0.12494664
228	0x3ce83f00	0.028350353
229	0x3e1b5fe4	0.15173298
230	0x3e74f2c6	0.23920736
231	0xbd394a61	-0.04523695
232	0x3dc45ddc	0.09588215
233	0x3de9f628	0.11423904
234	0xbe553368	-0.20820391
235	0xbe038b33	-0.12846069
236	0xbdabd32f	-0.083898894
237	0xbe4922f5	-0.19642241
238	0xbd9c7b2d	-0.076406814
239	0xbdab0ddc	-0.08352253
240	0xbe480884	-0.19534498
241	0xbe4714b0	-0.19441485
242	0xbdf60357	-0.12012356
243	0xbd17bb70	-0.03704399
244	0xbd9ec70d	-0.0775281
245	0xbdfec852	-0.12440552
246	0xbd26dd4e	-0.040738396
247	0xbdc38e63	-0.095486425
248	0xbdd256b1	-0.10270441
249	0xbe71edaa	-0.23625818
250	0xbe5c2ead	-0.2150218
251	0xbe3a4247	-0.18189345
252	0x3e414f3a	0.18877879
253	0x3e327600	0.17427826
254	0x3e36b478	0.17842281
255	0x3e01fa54	0.12693149

layers.4.bias f4 [128]
0	0x3daaaeee	0.083341464
1	0x3e161e21	0.14659931
2	0x3d8044d9	0.06263132
3	0x3da15816	0.07878129
4	0x3da04313	0.078252934
5	0x3d7668dd	0.0601586
6	0x3e807fda	0.25097543
7	0xbd98ebc5	-0.074668445
8	0x3e757529	0.23970474
9	0xbd67efe1	-0.05662525
10	0x3e1acb25	0.15116556
11	0x3e4e874c	0.20168799
12	0x3d854176	0.06506626
13	0x3e859ea0	0.26097584
14	0x3dde1eaa	0.108456925
15	0x3dd007e7	0.10157757
16	0x3e39cfda	0.18145695
17	0x3d0e81b3	0.03479166
18	0x3e2fd01d	0.17169233
19	0x3ce8f65b	0.028437784
20	0x3e28fbdc	0.16502327
21	0x3e442d48	0.19157898
22	0x3e568c11	0.20951869
23	0x3c8febf4	0.017568566
24	0x3d6820b9	0.05667183
25	0x3e58f4cf	0.21187137
26	0x3e8255e7	0.25456163
27	0x3e3f602f	0.18689035
28	0xbae89c27	-0.0017746732
29	0x3d8b7bdc	0.06810734
30	0x3d36f945	0.044671316
31	0x3e6d253d	0.23158737
32	0x3ddbd50f	0.10733997
33	0xbd4aec04	-0.04954149
34	0x3e3e28c5	0.1857024
35	0x3e60ff24	0.21972328
36	0x3da6b6f3	0.081403635
37	0x3e172136	0.14758763
38	0x3dfc9a1c	0.123340815
39	0x3d63cada	0.055613376
40	0x3d9e79f7	0.07738107
41	0xbd08b017	-0.033371057
42	0xbc04acb8	-0.00809782
43	0xbdfe80c1	-0.124269016
44	0x3e588a56	0.21146521
45	0x3d08d677	0.033407655
46	0x3baa08b5	0.0051890262
47	0x3e92fc56	0.28708142
48	0x3e28e37e	0.16493031
49	0xbc98958c	-0.018625997
50	0xbe0de8bf	-0.13858317
51	0xbd7090bd	-0.058731783
52	0x3db8b605	0.090190925
53	0x3dc61def	0.09673678
54	0x3de5e964	0.11226156
55	0xbb3ec965	-0.002911174
56	0x3ceb3d4e	0.028715756
57	0x3e1e8362	0.15479806
58	0x3c84d064	0.01621265
59	0xb9271afa	-0.0001593641
60	0x3e5ad0aa	0.21368662
61	0x3c87ddf4	0.016585328
62	0x3ddd16a8	0.10795337
63	0x3d431273	0.047625016
64	0x3e32f101	0.17474748
65	0x3da48115	0.08032433
66	0x3e0b609f	0.13611077
67	0x3d0bc5eb	0.034124296
68	0x3e12bf6f	0.14330839
69	0x3dfb925e	0.12283777
70	0xbce29c12	-0.02766231
71	0x3e3255ae	0.17415497
72	0x3e4104dc	0.1884951
73	0x3d854574	0.06507388
74	0x3e03e4be	0.12880227
75	0x3de4c258	0.11169881
76	0x3e04603c	0.12927336
77	0x3dd47823	0.10374477
78	0x3d979770	0.07401931
79	0x3e4428af	0.19156145
80	0x3d6084a9	0.054814015
81	0x3e165138	0.1467942
82	0x3b3df199	0.0028983115
83	0xbbbf678b	-0.0058412007
84	0x3e86572a	0.26238376
85	0x3db1e295	0.08685795
86	0x3df81562	0.121134534
87	0x3cdf9b92	0.027295861
88	0x3e33bf53	0.17553453
89	0x3d5ef187	0.054429557
90	0x3e26ab8c	0.16276377
91	0x3e890082	0.267582
92	0x3c388749	0.011262723
93	0x3ddf64e5	0.10907916
94	0x3d755034	0.05989094
95	0x3e2b06d5	0.16701825
96	0xbd2729cc	-0.040811345
97	0x3e5f6536	0.21815953
98	0x3e0b8e98	0.13628614
99	0x3e0cd68c	0.13753718
100	0x3de68fc3	0.11257889
101	0xbcdfbbfd	-0.02731132
102	0x3e6bd783	0.2303143
103	0x3bdbfa7e	0.0067132106
104	0x3e19dce6	0.15025672
105	0x3d5bce86	0.053663753
106	0xbd631095	-0.055435736
107	0x3eb0ce80	0.34532547
108	0x3c89a534	0.016802408
109	0xbe21e180	-0.15808678
110	0x3cdae2ef	0.026719538
111	0xbd85e1f4	-0.06537238
112	0x3c802759	0.015643762
113	0x3e17fdf6	0.14842972
114	0x3e0909c2	0.13382629
115	0x3c6abf82	0.014327886
116	0x3e83bc63	0.25729665
117	0x3d0ead88	0.03483346
118	0x3c269b2f	0.010168835
119	0x3d981580	0.07425976
120	0x3dfe8777	0.124281816
121	0xbca5b2b3	-0.020226812
122	0x3e5baec6	0.2145339
123	0xbcabef5a	-0.020988155
124	0xbe011914	-0.12607223
125	0x3cd361fa	0.025803555
126	0x3e437d5c	0.1909079
127	0xbe140da9	-0.14458336

layers.7.weight f4 [2, 128]
0	0xbf998515	-1.1993738
1	0xbf06c61a	-0.5264603
2	0x3d876296	0.06610601
3	0x3e035c79	0.12828244
4	0x3ec06eac	0.37584436
5	0x3efab0ad	0.48962918
6	0x3d6bd95f	0.057580348
7	0xbef41a14	-0.47676146
8	0x3cb19f4a	0.0216824
9	0xbf06c559	-0.5264488
10	0x3d6634d2	0.056202717
11	0x3dd0501d	0.101715304
12	0x3da7a5bf	0.081859104
13	0x3e42b006	0.1901246
14	0x3f19d654	0.60092664
15	0xbebd6db4	-0.3699776
16	0x3f4ead24	0.8073294
17	0xbfce4c55	-1.6117045
18	0x3e912933	0.28351745
19	0x3e623d87	0.22093783
20	0x3e3adafb	0.18247597
21	0x3f178300	0.59184265
22	0x3ec5d81f	0.3864145
23	0xbecedeb3	-0.4040428
24	0x3ed41ee2	0.41429812
25	0xbfaeb822	-1.3649943
26	0xbfb8b0d6	-1.4428966
27	0xbf12373e	-0.5711554
28	0xbed86232	-0.42262417
29	0xbf21079a	-0.62902224
30	0xbf1feac4	-0.624676
31	0x3dcb8942	0.09938289
32	0x3c9a2d00	0.018820286
33	0xbee43193	-0.44569072
34	0x3f1b31cc	0.6062286
35	0x404628a6	3.096231
36	0xbf468b0b	-0.7755591
37	0xbf8db468	-1.1070681
38	0x3fb363c3	1.401482
39	0x3e4b7c7a	0.19871703
40	0xbf27aeb9	-0.6550098
41	0xbf495952	-0.78651917
42	0x3ef7aa43	0.48372087
43	0xbf1af40d	-0.6052864
44	0x3ed5bc82	0.41745383
45	0xbee61cd1	-0.4494386
46	0xbeb25716	-0.34832066
47	0x3eb3544e	0.35025257
48	0x3e8dfa26	0.2772991
49	0xbf780113	-0.9687664
50	0xbfb81260	-1.4380608
51	0xbeae0ed4	-0.33995688
52	0x3f379428	0.71710443
53	0x3ec2800d	0.3798832
54	0xbd293eb0	-0.04131955
55	0xbf020ae8	-0.5079789
56	0x3f415e7a	0.75534785
57	0x3e8649d1	0.26228192
58	0xbf2b5387	-0.6692433
59	0xbec867d6	-0.3914172
60	0x4036c609	2.855837
61	0xbf119d0a	-0.5688025
62	0xbfbd7e2f	-1.4804133
63	0xbf1f8979	-0.6231914
64	0x3e94c20d	0.290543
65	0xbf410f6e	-0.7541417
66	0x3ff98b65	1.9495665
67	0xbf4fef26	-0.81224287
68	0x3f2fcfd9	0.68676525
69	0xbfc1c07d	-1.5136868
70	0x3fe25c7b	1.7684473
71	0xbfd302ac	-1.648519
72	0xbf65db75	-0.8978799
73	0x401895d3	2.3841445
74	0x40276f6c	2.6161757
75	0x402b5baf	2.677471
76	0xbf2d5f95	-0.6772397
77	0x3e4dea6a	0.20108953
78	0x3f98bdd2	1.1932929
79	0x3f114f0b	0.56761235
80	0x3f0f7f68	0.5605378
81	0x3fde5f17	1.7372769
82	0xbee36305	-0.44411483
83	0xbf09b359	-0.5378929
84	0xbeed00ad	-0.46289578
85	0xbf89013e	-1.0703504
86	0x3f2a5360	0.6653347
87	0x3eb0a966	0.3450424
88	0x3ecdfa1e	0.40229887
89	0x3fa6bb77	1.302596
90	0x3fd70611	1.6798726
91	0x3e9d894c	0.30768812
92	0xbf0b6843	-0.54455966
93	0x3f011664	0.5042479
94	0x3f1e37e5	0.6180404
95	0xbf79c15b	-0.9756066
96	0x3f1d6792	0.6148616
97	0x3ddf31da	0.1089818
98	0xbf4ecd69	-0.8078218
99	0x3ee01f43	0.4377385
100	0x40357e5f	2.835838
101	0x3e4148dd	0.18875451
102	0x3edf2c25	0.43588367
103	0xbf4ef8e7	-0.80848545
104	0x3eec863f	0.46196172
105	0xbfa2c499	-1.2716247
106	0xbf08015d	-0.5312708
107	0xbf8823a8	-1.0635881
108	0x3e0beaec	0.13663834
109	0xbf077af1	-0.5292197
110	0xbeed454a	-0.46341926
111	0xbf03e19e	-0.5151614
112	0x3efcd5c0	0.49381828
113	0x3ef18d0f	0.47177932
114	0x3ef22619	0.4729469
115	0x3f8cfddd	1.1014973
116	0x3e9f182b	0.31073126
117	0x3f9ebba5	1.2401015
118	0x3fb7aae3	1.4349025
119	0xbf0c6452	-0.54840577
120	0xbee343f8	-0.44387794
121	0xbf018104	-0.5058749
122	0x3eda7622	0.42668253
123	0xbf94918e	-1.160692
124	0xbf2c179d	-0.6722353
125	0x3f23382d	0.6375759
126	0xbfec00d5	-1.8437754
127	0xbf0d0fe5	-0.5510238
128	0xbe1422f2	-0.14466456
129	0xbcf2124d	-0.029549742
130	0xbdb82092	-0.08990587
131	0x3c42c8fc	0.011888739
132	0x3d711248	0.058855325
133	0x3d5e69da	0.054300167
134	0x3d925743	0.0714555
135	0xbdc6c4ca	-0.09705503
136	0x3d921bd5	0.07134215
137	0xbdac85b2	-0.08423938
138	0xbd0232cf	-0.031786736
139	0xbbce736e	-0.0063003814
140	0xbd906092	-0.07049669
141	0xbc348f5a	-0.011020506
142	0x3dccf4a2	0.100075975
143	0xbdfab576	-0.12241642
144	0xbb33abcd	-0.0027415634
145	0xbe3962c8	-0.18104088
146	0x3d7db381	0.061938766
147	0xbcdf8a04	-0.02728749
148	0x3d22366a	0.039602675
149	0x3d99929f	0.07498669
150	0x3ca9361b	0.020655682
151	0xbd07b496	-0.033131205
152	0x3d63ae57	0.055586185
153	0xbe2107f9	-0.15725698
154	0xbe1ba972	-0.15201357
155	0xbd5d42ae	-0.05401867
156	0xbd9a1a6a	-0.07524569
157	0xbdc62310	-0.096746564
158	0xbd3bc2bb	-0.045840006
159	0x3da7dd3d	0.08196495
160	0x3de70423	0.11280086
161	0xbdac4f83	-0.08413603
162	0x3d8d56b5	0.06901304
163	0xbcb33080	-0.021873713
164	0xbd5cdcf0	-0.05392164
165	0xbddd2d31	-0.10799635
166	0x3dadfb02	0.084951416
167	0x3da82548	0.08210236
168	0xbd5cdb28	-0.05391994
169	0xbd9a3b0b	-0.07530793
170	0x3d7287c9	0.059211526
171	0xbdff3cff	-0.12462806
172	0x3d8a5e05	0.06756214
173	0xbd9d04cf	-0.07666933
174	0x3ddea9c2	0.108722225
175	0x3d35d536	0.044392787
176	0x3d461a7a	0.048365094
177	0xbdc798a6	-0.09745912
178	0xbe202ca7	-0.15642034
179	0x3c8786bf	0.016543744
180	0x3cdbb63b	0.026820293
181	0x3d88c3fa	0.066780046
182	0xbe6eb864	-0.23312527
183	0xbd67fced	-0.056637693
184	0x3db31239	0.0874371
185	0xbcd0cc22	-0.025487963
186	0xbd92c475	-0.071663775
187	0xbd364466	-0.044498824
188	0x3dd38de5	0.103297986
189	0xbd2f9462	-0.04286612
190	0xbe43ea88	-0.19132435
191	0xbd7f68bb	-0.062355738
192	0x3d8720ec	0.06598076
193	0xbdf1255c	-0.11774704
194	0x3d859867	0.06523209
195	0xbd8ba27b	-0.068181
196	0x3cc87dc1	0.024474027
197	0xbdd96208	-0.10614401
198	0x3e3b2e1d	0.1827931
199	0xbe0f25f2	-0.13979319
200	0xbd971dde	-0.073787436
201	0x3e457edf	0.19286679
202	0x3dd3c2aa	0.103398636
203	0x3e77878a	0.24172798
204	0xbe1b8c53	-0.15190248
205	0x3d49f7e3	0.04930867
206	0x3dd9343f	0.10605668
207	0x3daafdd3	0.083491944
208	0x3daee644	0.085400134
209	0x3dfe546d	0.12418447
210	0xbd550cb6	-0.052014075
211	0xbd39584c	-0.045250222
212	0xbd30b98e	-0.04314571
213	0xbdf34352	-0.11878075
214	0x3d94b76a	0.07261546
215	0x3d4d6d77	0.050153222
216	0x3d08498e	0.033273272
217	0x3e98f671	0.2987552
218	0x3da0c341	0.07849742
219	0x3d754486	0.059879802
220	0xbd193c9e	-0.037411325
221	0x3d68c003	0.05682374
222	0x3d3d2024	0.04617323
223	0xbe1dfbab	-0.15428035
224	0x3e1c333d	0.15253921
225	0x38f40ec6	0.000116375784
226	0xbd8de4bc	-0.06928393
227	0x3d578b5d	0.05262314
228	0x3e32e22f	0.17469095
229	0xbc915756	-0.01774184
230	0x3d8cedc9	0.068812914
231	0xbe06e9b9	-0.13175096
232	0x3dd7b3e2	0.10532357
233	0xbded783a	-0.11595197
234	0xbd3e5a3c	-0.046472773
235	0xbdca9c81	-0.09893132
236	0xbd3fcfcf	-0.04682904
237	0xbdbd8511	-0.09253896
238	0xbddedce9	-0.10881979
239	0xbd7ca0d5	-0.06167682
240	0x3d5c07b3	0.05371828
241	0xbcaaec3e	-0.020864602
242	0x3d9187c2	0.07105972
243	0x3dc393d7	0.095496826
244	0x3d09a189	0.033601318
245	0x3e42434a	0.18970981
246	0x3df76379	0.1207952
247	0xbd163c23	-0.036678445
248	0xbd38f257	-0.04515299
249	0xbd932c1f	-0.0718615
250	0xbcba4c46	-0.022741448
251	0xbd777c56	-0.06042131
252	0xbc228a4c	-0.009920668
253	0x3d8badc9	0.06820256
254	0xbe369ce7	-0.17833291
255	0xbd402472	-0.046909757

layers.7.bias f4 [2]
0	0x3e5f8bd2	0.21830681
1	0x3dba256f	0.09089171
