people-and-planet-ai/weather-forecasting/local_model/pytorch_model.bin (torch, 419595 bytes, 8 tensors)

layers.0.mean f4 [1, 1, 1, 52]
000000 37 0c bc 3f bd 85 bd 3f a1 83 d0 40 5c 4f bb 44
       1.4691228 1.4806439 6.516068 1498.48
000010 8f 32 b2 44 f6 98 b6 44 1a bb 31 44 fa a4 0c 44
       1425.58 1460.78 710.92346 562.57776
000020 c9 c2 2b 44 7b d0 90 45 a4 60 00 45 3d 2a 05 45
       687.0435 4634.06 2054.04 2130.64
000030 ae d7 00 45 14 ae fd 44 29 34 18 45 52 40 13 45
       2061.48 2029.44 2435.26 2356.02
000040 7b 64 0f 45 ec d9 0d 45 00 60 1c 45 7e 0f 06 44
       2294.28 2269.62 2502.0 536.24207
000050 b3 14 03 44 4f ea 06 44 40 15 6b 43 e6 5c 4e 43
       524.3234 539.6611 235.08301 206.36288
000060 8d 24 7c 43 a4 68 67 45 b8 ee 03 45 7b 8c 08 45
       252.14278 3702.54 2110.92 2184.78
000070 00 38 03 45 ae 6f 00 45 14 9e 19 45 d7 bb 14 45
       2099.5 2054.98 2457.88 2379.74
000080 8f 22 11 45 d7 a3 0f 45 c3 65 1e 45 11 ed 60 41
       2322.16 2298.24 2534.36 14.057878
000090 cd 1a d6 41 48 a6 70 42 94 6f 21 40 20 d3 d0 41
       26.763086 60.162384 2.5224352 26.103088
0000a0 b4 6c c6 41 00 18 8e 45 d7 fb 0d 45 7b 44 17 45
       24.803078 4547.0 2271.74 2420.28
0000b0 3d aa 13 45 29 bc 16 45 f6 a8 26 45 66 c6 27 45
       2362.64 2411.76 2666.56 2684.4
0000c0 9a 09 25 45 66 ae 23 45 b8 1e 30 45 e4 df 1e 45
       2640.6 2618.9 2817.92 2541.9932

layers.0.std f4 [1, 1, 1, 52]
000000 a8 8a c5 3f 48 a7 f0 3f 2f a8 3d 41 57 cb 39 44
       1.543294 1.880105 11.85356 743.1772
000010 f0 7a 3d 44 9b e7 3c 44 80 8e 03 44 5a ec 87 43
       757.9209 755.61884 526.22656 271.8465
000020 f4 9f af 43 1e fc 81 44 79 d4 d9 42 a7 ff 0a 43
       351.24963 1039.8787 108.914986 138.99864
000030 f8 f0 1a 43 f0 bc 6a 43 47 16 24 43 1c 17 47 43
       154.94128 234.73804 164.08702 199.09027
000040 95 6e 4a 43 f6 0f 47 43 33 f1 2e 43 b5 b3 0c 44
       202.43196 199.06235 174.94218 562.8079
000050 c9 c1 09 44 4d ed 0d 44 59 39 8c 43 9e 73 56 43
       551.0279 567.7078 280.44803 214.45163
000060 e2 1c 83 43 74 bc a6 44 1b 58 2e 43 b0 49 50 43
       262.22565 1333.8892 174.34416 208.28784
000070 34 c1 47 43 b1 3e 74 43 7d 9e 20 43 b6 3c 51 43
       199.7547 244.24489 160.6191 209.23715
000080 99 ff 59 43 fb 11 5a 43 76 74 49 43 31 fc 78 41
       217.99843 218.07024 201.45493 15.56157
000090 e2 5e 15 42 56 05 b6 42 ac 3f 6b 40 25 7f 24 42
       37.34266 91.01042 3.6757612 41.124165
0000a0 26 0d 19 42 6c 89 81 44 85 5f 1f 43 57 29 36 43
       38.26284 1036.2944 159.37312 182.16148
0000b0 f3 70 3b 43 e8 ad 81 43 eb 35 2a 43 af 37 5f 43
       187.44121 259.35864 170.21062 223.21751
0000c0 fe 4d 6a 43 fe b6 6b 43 cb 96 4f 43 44 9b 20 45
       234.30466 235.71481 207.58904 2569.704

layers.2.weight f4 [64, 52, 3, 3]
000000 f9 61 2e bc de 8b ac 3c ac 72 0e 3d 0d d6 2b bd
       -0.010643476 0.021062788 0.03477733 -0.04195218
000010 1b d2 2d bd 8b a5 34 3d af a4 24 3c db 0e b1 bc
       -0.0424367 0.044103187 0.010049029 -0.021613529
000020 19 02 26 3d 4b c3 be 3c 3f cd 33 bd 18 35 36 bd
       0.040529344 0.023286482 -0.04389691 -0.044484228
000030 bf 8f 18 3d 33 f8 9c bb 8a 9e be bc 02 9a fb 3a
       0.037246462 -0.00479033 -0.023268957 0.0019195678
000040 9d bb 54 3c 24 7e 8a 3c 93 e1 9f 3a bd b1 1f 3d
       0.012984184 0.016905852 0.0012197964 0.038987864
000050 5b a9 90 bc fc df 19 3d ba 54 f2 bc e1 73 e9 3c
       -0.01765888 0.037567124 -0.029581416 0.028497638
000060 2e a0 da 3c 32 1a 2b bd 91 e3 29 bd 16 78 d2 3c
       0.026687708 -0.04177303 -0.04147679 0.025692027
000070 d9 8b 68 bc d9 77 0d 3b ee 4d 2d bc 7e 40 95 3c
       -0.0141934985 0.0021586327 -0.010577662 0.018219229
000080 2a ae a9 bb 48 6f fa 3b 8a 44 df 3c 90 5e 31 bc
       -0.0051782327 0.0076426603 0.027254362 -0.010825768
000090 f4 0f a8 3c 52 7d 36 bd 1e a3 3c 3d 32 20 92 bc
       0.02051542 -0.04455311 0.046054 -0.017837618
0000a0 4b ab 2b 3d b2 aa b1 3a 43 cd b0 bc 1d 64 30 3d
       0.041911405 0.00135549 -0.021582251 0.043064225
0000b0 52 64 e6 3c 94 ab c5 3c 09 ad 3b bc 25 e2 2e bd
       0.028124008 0.024129666 -0.011454829 -0.042696137
0000c0 ad 4b a6 bc a8 8a 39 bd 83 84 d5 3c c2 fc 25 3c
       -0.020299757 -0.04529825 0.026064163 0.010131063
0000d0 90 b9 8d bc 03 5c fa bc 3a 62 18 bd 7a 52 f5 3c
       -0.017300397 -0.030561453 -0.03720305 0.029946554
0000e0 7d 60 cd bc 6f d3 2d 3d d0 40 c2 bc 47 83 a4 3c
       -0.025070423 0.042437967 -0.023712546 0.02008213
0000f0 cc a7 3c 3d f4 66 16 bc 8e 2c 0d 3d d1 e9 0e bc
       0.04605846 -0.009179819 0.03446632 -0.008722738
000100 12 a8 3f 3c 74 7e 62 bc f0 ff f7 bc 00 b6 9d bc
       0.011697786 -0.013824094 -0.030273408 -0.019251823
000110 6c 64 78 3c 47 8b 37 bb 15 f4 1f bd 5d e5 62 bc
       0.015160661 -0.00280066 -0.039051134 -0.01384863
000120 4e 09 e9 bb a3 0e 29 3d 6a 90 26 bd 50 3a 2e 3d
       -0.007111705 0.041273724 -0.040665068 0.04253608
000130 95 ba 00 b9 5f 53 bd 3c 8e 56 99 3c bf c7 27 bc
       -0.00012276538 0.023111043 0.01871803 -0.010240494
000140 29 f1 8c 3c e9 ac 94 3b 69 41 2e 3d 3b 94 df 3c
       0.017204838 0.004537214 0.04254285 0.027292361
000150 da 9e f0 bb 86 f8 08 3c 28 09 14 3d 71 e5 f9 bb
       -0.0073431553 0.008360034 0.036141545 -0.0076262285
000160 2c 42 29 bd 8e d8 1f 3d 16 6c ea bc 9a 5c 10 3b
       -0.041322872 0.039024882 -0.028615993 0.002202785
000170 b7 d5 b9 bc fb 4d 03 3d 8e 3f ef 3c a4 9b eb 3c
       -0.022684915 0.03205679 0.02920511 0.028760739
000180 ce a7 27 bd c0 b7 20 bd cc 2b 22 bd 91 15 2d 3d
       -0.040931515 -0.039237738 -0.03959255 0.042256895
000190 0a 97 32 3d ef 4b 80 bb a6 40 32 3c ec 65 8c 3c
       0.043601073 -0.003915302 0.010879671 0.017138444
0001a0 b8 0f 98 bc 5b 2e e3 3c 8f b8 66 3b 88 68 ef 3c
       -0.018562183 0.027732065 0.003520522 0.02922465
0001b0 90 28 0c bd 86 8e e1 bc 3d 5e ca bc 3d b6 81 3c
       -0.03421837 -0.02753378 -0.02470314 0.015833968
0001c0 1e 73 72 3a 7b 1f b7 3c 4c 22 04 3c ec c7 c0 bc
       0.0009248721 0.022353878 0.008064818 -0.02353283
0001d0 e6 9c 93 bc 6f 48 65 3c 75 20 11 3d a8 5d 02 bd
       -0.018019151 0.01399432 0.035431344 -0.0318276
0001e0 a8 a8 39 3d 8d 72 02 bd b9 d0 a4 3b 52 14 04 3d
       0.04532686 -0.031847525 0.0050297645 0.03224594
0001f0 c1 fa ca bc 1c 6d e0 3c de 3d 34 bd 03 b2 34 bb
       -0.024777772 0.027395777 -0.044004314 -0.0027571924
000200 c2 ea 0d 3c 39 7f 2e 3b 89 a1 1a 3d 82 52 5c bc
       0.008661928 0.0026626124 0.03775171 -0.013447406
000210 9b f8 80 bc 3d d4 e9 b9 4d b9 9a 3a 66 ad 86 bc
       -0.015743544 -0.00044599353 0.0011804492 -0.016440105
000220 16 5d 19 bd c1 c4 16 3c ae 6d 05 3d 96 ee 9f 39
       -0.03744229 0.009202183 0.0325753 0.00030504604
000230 6c c1 14 3c 06 31 51 ba 93 38 02 3d 58 7e 7c 3c
       0.0090793185 -0.00079800223 0.031792235 0.015410982
000240 34 79 47 3c 29 c0 1a bc 06 15 3d bc 5d 92 34 bd
       0.012174893 -0.009445229 -0.011540657 -0.044084895
000250 26 d4 1e 3d 59 e7 a2 3c 18 0a 1f bd cb 8d 21 bd
       0.03877654 0.019885706 -0.038827986 -0.039441865
000260 d5 9d 54 3c 83 f3 b0 bc b7 de cb bc a0 54 11 3b
       0.012977083 -0.02160049 -0.024886472 0.0022175685
000270 09 1f 93 3c e5 6b 39 3d 00 28 16 3c 27 6f 0e 3d
       0.017959135 0.045268912 0.00916481 0.034773972
000280 52 97 bc 3c 9c fb 29 bd 72 67 28 bd 37 a3 79 bc
       0.023021374 -0.04149972 -0.04111428 -0.015236667
000290 30 e3 03 bd a1 74 a4 bc e4 91 59 3c 97 0f a7 bc
       -0.032199085 -0.020075144 0.013279412 -0.020393176
0002a0 b1 d5 9f bc 40 8f 01 3d 4c 01 e4 bc f3 15 24 3d
       -0.019511076 0.031630754 -0.02783265 0.040059995
0002b0 2a a1 3a bc c0 c8 c8 bc b9 47 a6 bc 80 b5 bb 3c
       -0.011390964 -0.024509788 -0.020297872 0.022913694
0002c0 ac cb dc 3c f9 d1 c8 3c c7 19 bd bc b5 99 ab 39
       0.026952587 0.024514185 -0.02308358 0.00032730182
0002d0 f0 85 f1 bc 71 ff cd 3b ea 57 f5 3c 3f 7f 37 bd
       -0.029482812 0.0062865545 0.029949147 -0.044799086
0002e0 29 69 24 3d 53 7d b9 3c ba 18 c0 bc 3f f2 55 3c
       0.04013935 0.022642767 -0.02344929 0.013058244
0002f0 c3 2c 2c 3d dd 12 3c 3d 94 33 ba bb 2d a3 34 3c
       0.042034876 0.045916427 -0.005682418 0.011025232
000300 11 91 54 bc 3c 08 9d bc 15 5b 00 3d 29 d6 b6 bc
       -0.01297404 -0.019168966 0.031336863 -0.022318916
000310 11 6a 99 bc e9 20 90 bc df 51 90 3c c0 3c 99 3c
       -0.018727334 -0.017593818 0.017617164 0.018705726
000320 8b 70 14 3c 51 f1 1d bd 34 b3 5e bc 0f 34 b3 3c
       0.009060035 -0.038560215 -0.01359253 0.02187541
000330 54 c2 0f bd b5 6e 4a bb 49 2d 00 3d 25 18 e9 3c
       -0.035097435 -0.003088874 0.031293187 0.028453896
000340 08 17 d5 3c ca 9f f6 3c fd 07 d8 3b 5c e4 14 3d
       0.026011959 0.03010549 0.006592749 0.036350593
000350 30 66 7c ba 14 0c 22 3d 8d 2e 8e bc 51 6e 2d b9
       -0.0009628264 0.0395623 -0.017356182 -0.00016539662
000360 97 da fc 3b 3d b0 37 bc 34 9a a3 bc 7d 7d 35 bd
       0.0077164876 -0.011211452 -0.01997099 -0.044309128
000370 02 fd 1c 3c 2c 17 f3 bc 0f 90 ff 3c 11 0a 8f 3c
       0.009581806 -0.029674135 0.031196622 0.017460855
000380 86 0a 3d 3d 5f 4c b2 3c 3d c2 22 ba bd ba ba bc
       0.046152614 0.021764932 -0.00062087533 -0.022794122
000390 b3 2b 07 bd 0c 4c 99 bc b5 a9 3b 3d 9a 65 17 3a
       -0.03300066 -0.01871302 0.045816142 0.00057753327
0003a0 0a 67 b0 bb bf 38 b4 3c 8c e3 b0 bc 80 de 6e 3c
       -0.005383377 0.021999715 -0.021592878 0.014579415
0003b0 c7 2c 63 bc 2c 0f 49 ba f6 19 d4 3b 2b e6 12 3d
       -0.013865656 -0.0007669802 0.0064728213 0.035864037
0003c0 37 44 a3 3b 5f 8f 63 3c be e9 0d 3d 7b f4 af bc
       0.004982497 0.013889163 0.034646742 -0.021478882
0003d0 e1 dd c2 3c 9b 31 32 3d 1d c3 c4 bb 8a 67 83 bb
       0.02378744 0.04350434 -0.0060047046 -0.0040101456
0003e0 9c a1 e0 bc ea b5 89 bc e0 1f 72 bc f7 12 18 bd
       -0.027420811 -0.016810376 -0.014778107 -0.03712746
0003f0 f6 8c dc 3c 4b 72 22 3d a5 5c ae bc 4f 29 95 3c
       0.026922684 0.03965978 -0.02128441 0.018208174

layers.2.bias f4 [64]
000000 d6 bc 8e bb 70 4a 10 3d 72 d5 93 bc 0e 33 ca 3c
       -0.004356007 0.03522724 -0.018046115 0.024682548
000010 51 5a d6 3c 71 cb 29 3d 32 64 10 bd 27 fa 05 3d
       0.026166113 0.041453782 -0.035251804 0.032709267
000020 a1 49 28 bd ce df 12 bd 7b fa db bc 75 5a 9a 3c
       -0.041085843 -0.035857968 -0.026852837 0.018841961
000030 9a 20 5e bc 45 b0 20 bd 93 dd 21 bc 3a 79 08 3d
       -0.0135575775 -0.039230604 -0.009879488 0.033318736
000040 4e ee 17 3d 8a 55 d5 bc da 93 30 3d 89 ee 28 bd
       0.0370925 -0.026041765 0.043109752 -0.04124311
000050 de 26 d6 bc 77 bb 7d 3c fc e2 19 3d e5 a9 28 bd
       -0.02614158 0.01548659 0.037569985 -0.04117765
000060 f4 e2 17 bd b3 6f 43 3c 7c 0a 0a 3d 99 1c 0a ba
       -0.037081674 0.011928487 0.033701405 -0.00052685436
000070 04 40 27 3d 82 97 db 3b e7 56 de 3b 19 9f f8 bb
       0.040832534 0.0067014107 0.006785262 -0.0075873253
000080 3d 5b 27 bd 57 50 27 bc 1b 4e 37 bc f5 e3 cf bc
       -0.040858496 -0.010212026 -0.011188055 -0.025377253
000090 89 43 26 3d d8 8e 33 bd d9 49 ac 3c 0c 3f 99 bc
       0.04059175 -0.0438374 0.021031307 -0.01870682
0000a0 91 ac 9a bb d6 17 02 bd e9 97 d0 bc c5 8e fa bc
       -0.0047202785 -0.031761013 -0.025463061 -0.030585656
0000b0 be 03 0b 3d f6 1c 7d bb ec bf 1a 3c a6 e9 fe 3c
       0.033939116 -0.0038621998 0.009445172 0.031117272
0000c0 b3 df 39 3d f8 92 e2 3c 84 bb 9a 3b 19 06 1a 3c
       0.04537935 0.02765797 0.0047220606 0.009400868
0000d0 09 d9 2f bc ec ac 88 3c 91 26 81 bc 52 96 79 3c
       -0.010732898 0.016684018 -0.01576546 0.015233593
0000e0 c7 63 e4 3c 8e c7 00 bd 80 61 12 3d b0 9f 81 bc
       0.027879609 -0.03144031 0.035737514 -0.015823215
0000f0 df e1 38 bd 07 f1 35 3d f4 e2 1b 3d 35 77 0b bd
       -0.045137282 0.044419315 0.038058236 -0.03404923

layers.4.weight f4 [64, 128, 3, 3]
000000 ba 68 9b bc 8e 72 31 bc 54 7b 22 bc b6 ec a0 3c
       -0.018970836 -0.010830535 -0.009917099 0.019644123
000010 bd 4d 64 bb 81 a9 04 3c 7f 70 80 3c 52 c8 a0 bc
       -0.0034836375 0.0080970535 0.015678642 -0.01962677
000020 59 fd 6f bc 73 18 ea 3b 74 4a e5 bc 1a 66 3b bc
       -0.014647805 0.007144028 -0.027989604 -0.011437917
000030 22 a5 2e bb 99 4a d4 bc fa 5a b7 bc 32 52 f8 3a
       -0.002664872 -0.025914477 -0.022382248 0.0018945395
000040 c0 c1 b6 3b 8c fb 98 bc 3e df 58 3c 63 81 77 bb
       0.005577296 -0.018674634 0.013236819 -0.003776633
000050 b9 1f cf bc ea fd b8 bc 3e 08 61 bc 3a fb 53 bc
       -0.025283681 -0.022582013 -0.013734875 -0.012938315
000060 06 cc 9a bc 30 2e 33 3c 8e c7 b7 3c 31 ff 07 3c
       -0.018896114 0.010936305 0.022434022 0.0083005885
000070 15 e3 6d bc 27 03 38 bb cb 63 ef 3c 65 49 f2 3c
       -0.014519473 -0.002807805 0.02922239 0.029576013
000080 e3 2e e9 3b 71 a3 9a 3c 6c 6f 22 bc be b2 9a bc
       0.007116185 0.018876763 -0.00991426 -0.018884059
000090 b7 f1 4e bc 45 82 ee 3c 10 d1 ed 3b ba 31 54 3c
       -0.0126308715 0.029114852 0.007257588 0.012951309
0000a0 ec c4 93 bb 62 7c be 3c eb 5e d3 3c f2 96 4a 3c
       -0.004509559 0.02325267 0.025802096 0.01236509
0000b0 a5 0d e2 bc e9 83 5b 3c 41 1e 0a bc f4 ec 88 3b
       -0.027594397 0.013398149 -0.008430065 0.0041786376
0000c0 b4 b9 bd 3c e5 ec 06 3c bd a2 6a 3a 48 ba 11 bc
       0.02315984 0.008235191 0.00089506415 -0.008894511
0000d0 b3 d6 c1 bc 10 d8 d6 bc 79 3e ef 3c fe 67 89 3c
       -0.023661947 -0.026226074 0.029204594 0.01677322
0000e0 f6 4e 11 3a 4d 96 9a 3c 4c 88 38 bc cf d2 9c b9
       0.0005543077 0.018870497 -0.011262964 -0.00029911703
0000f0 12 45 1a bc 55 8e d7 3c db 1b a1 bc d7 69 f3 3c
       -0.009415882 0.026312986 -0.019666603 0.029713554
000100 ca ea f2 3c 6d cb 21 3c 34 b1 8a bb d5 21 d1 3c
       0.029652972 0.009875161 -0.00423255 0.025528828
000110 75 57 8b bc 67 bf 92 bb f7 cf ea 3c eb cf 73 bc
       -0.017009476 -0.0044783833 0.028663618 -0.0148811145
000120 6c b0 5c 3a ff 5b e5 3c ea 87 72 3c 10 39 aa 3c
       0.0008418623 0.027997969 0.014802912 0.020779163
000130 98 cf ea 3c 13 47 ae bb 6d f1 88 bc 64 65 a3 3c
       0.028663442 -0.0053185313 -0.016716683 0.019945808
000140 b1 9c a9 bb 3f 2a 82 bc 22 ba 5f bc 38 09 f4 bc
       -0.00517615 -0.015889285 -0.013655217 -0.029789552
000150 8b 70 e3 3c f6 4d 3b bb b6 0c 9e bb 1e 2f 8f ba
       0.027763626 -0.0028580404 -0.0048232926 -0.0010924076
000160 96 58 30 bb 16 d9 91 3c 4e 4b 2b 3c 24 09 bc bc
       -0.002690827 0.01780371 0.010454966 -0.022953577
000170 c2 07 6a bb 9c bb 65 bc 02 69 e2 bc 00 65 1e bb
       -0.003571019 -0.01402178 -0.027637962 -0.0024169087
000180 7a 44 14 bc c5 e5 42 ba 29 7d 3f bb fb 10 7b 3c
       -0.009049529 -0.0007434751 -0.0029218888 0.015323873
000190 38 f5 6f bc 19 e8 03 bc ee 6e bb bc 93 03 dd bc
       -0.014645867 -0.008050942 -0.022880044 -0.026979243
0001a0 61 c4 a3 bc e7 cb 86 3c 13 07 c7 3c 78 ea 2e 3c
       -0.019991102 0.01645465 0.024295365 0.010676019
0001b0 a2 70 48 ba 66 b7 9e bc bc fa ac b9 d2 d6 7c bc
       -0.0007646178 -0.01937456 -0.00032993208 -0.0154320765
0001c0 3d 36 49 3b 7d 00 c9 bc f8 8b 7e 3c a3 bd 34 bc
       0.0030702495 -0.024536366 0.015536301 -0.011031541
0001d0 90 9f 46 3c 64 36 b5 3c d0 dd 99 3c 22 11 81 3b
       0.012123004 0.022120662 0.018782526 0.00393881
0001e0 0d 90 68 39 ef 73 1b bc 14 6c b4 bb 77 9d d5 3c
       0.00022178907 -0.00948809 -0.005506048 0.026076062
0001f0 91 21 17 3c e3 e3 d4 bc 7b ef 2d bc bd 64 a2 3c
       0.009224311 -0.025987571 -0.010616179 0.019823426
000200 cf 5d ef 3c d1 32 2d bb 0e 89 d4 bc 98 a7 67 bb
       0.029219536 -0.0026427994 -0.025944259 -0.0035347696
000210 10 66 cc bc 4d b3 10 bc 39 ec 37 bc 0f 0f 89 bc
       -0.024951011 -0.008831811 -0.011225753 -0.016730813
000220 bf d1 b2 bc 59 1b ae bc e5 9b 5d 3b fe 9b 97 bb
       -0.02182853 -0.021253275 0.0033814844 -0.00462675
000230 4f 6f 54 bc 73 08 eb bc 4d f2 bc 3a 6f 7a 5f bc
       -0.012965991 -0.028690552 0.0014415473 -0.01364003
000240 e9 ba ff bb 3f f6 89 3c 31 5c bc bc 6b d7 44 3c
       -0.007804264 0.016841052 -0.022993179 0.01201425
000250 a3 10 bf bc 2e a0 cc 3c 49 58 7c bc 6b ee ac 3c
       -0.023323363 0.024978723 -0.015401908 0.02110978
000260 1a 62 20 3c a5 23 6c 3c 01 d0 0a 3c 2b 0d f4 3b
       0.009789014 0.014412795 0.008472444 0.007447859
000270 67 bf c9 b9 15 ba 3d bc 7d 80 8e bc 15 bf 1e ba
       -0.00038480313 -0.01158001 -0.017395252 -0.0006055695
000280 26 a2 49 3c 44 67 8e bc 5c df 0c 3b 88 c3 80 3c
       0.012306726 -0.017383225 0.0021495437 0.015718237
000290 62 c6 b0 3a 31 70 30 3c 3e ac c3 3c a1 10 f3 3b
       0.0013486857 0.010768936 0.023885842 0.007417754
0002a0 d3 e6 11 3a ce e2 ad bc 7f 17 4a 3c 98 22 22 3a
       0.00055657065 -0.021226313 0.0123347035 0.00061849644
0002b0 3f 04 82 3c 69 5d 42 bb 1a c8 90 3c 5d f3 84 3c
       0.015871165 -0.0029657728 0.01767354 0.016229326
0002c0 33 8f bf 3c 5b 82 9f bb 99 ec e6 3c b2 65 89 ba
       0.023383712 -0.0048678345 0.02818899 -0.0010482578
0002d0 3a d3 cc 3c 7f 9b 98 3c 6e b8 37 3c 27 bd f7 3a
       0.025003064 0.018628834 0.011213405 0.0018900976
0002e0 16 a6 db 3c 53 af f2 bc b9 6d 43 bc 9e 83 cf 3c
       0.026812594 -0.029624617 -0.011928015 0.025331315
0002f0 bb e2 ce bc df 78 a4 bc 1e 68 cb bc ff 72 86 3c
       -0.025254598 -0.020077167 -0.02482992 0.016412256
000300 90 d6 64 bc b1 91 a9 39 98 af 10 3c 94 32 05 bc
       -0.013967171 0.0003234274 0.008830927 -0.008129735
000310 e6 cb 20 3c ec 8b 97 3c 5b d0 c0 bc 98 c6 d8 bc
       0.009814238 0.018499337 -0.023536852 -0.026461884
000320 80 6c aa ba 48 93 a5 39 68 db f9 bb 8e 78 ee bb
       -0.0013002306 0.00031580986 -0.007625032 -0.007277555
000330 95 66 5e 3c a6 de dd 3c 6e c6 96 3c bc ed 20 3b
       0.013574262 0.027083706 0.018405166 0.0024555763
000340 02 f7 9a bb c9 1c c2 bb af 94 0c ba 4f 34 de 3c
       -0.0047291527 -0.0059238416 -0.0005362732 0.027124552
000350 12 8c ad bc f1 9d 1a bc 07 4d f9 3b 89 56 62 bc
       -0.021184955 -0.00943707 0.0076080593 -0.013814577
000360 c3 14 74 bc 11 e5 f2 3a f6 fd cf bc 1a 7e 38 bc
       -0.014897528 0.0018531402 -0.025389653 -0.011260534
000370 c3 a7 3e 3c 8e 83 14 3b b4 ef d2 3c fa 4b 9a b9
       0.011636677 0.002266142 0.025749065 -0.00029429776
000380 25 6f ca bc 42 b1 ba 3c 49 04 13 ba 15 68 94 3c
       -0.024711201 0.022789601 -0.00056082435 0.018116036
000390 5b e5 dd bc 29 77 cd bc 78 06 ac bc 92 64 84 bc
       -0.027086904 -0.025081234 -0.020999178 -0.016161237
0003a0 b5 4d 69 3b 3f 8a ef ba 1a 0f 9c 3c b7 60 29 3c
       0.0035599296 -0.0018275453 0.01905017 0.010338
0003b0 78 97 23 bc b5 c6 a8 bc 48 f0 d6 bc 7a 4b b3 3a
       -0.009984843 -0.020602563 -0.026237622 0.001367911
0003c0 ec 9b cd bb 48 fa 60 3c 7b c2 ee 3c fc 9c 46 3c
       -0.006274691 0.013731547 0.02914547 0.012122389
0003d0 a0 17 20 3c 8f 34 eb 3c 97 a9 0e 3c e7 c3 e8 bc
       0.009771258 0.028711585 0.008707426 -0.028413726
0003e0 7d 48 ce bc a3 4e aa 3c 0a fe 29 3b 7c d9 70 3c
       -0.02518105 0.02078945 0.0025938773 0.01470029
0003f0 01 92 a0 3c 02 32 af 3b 33 7e 87 3b e5 a6 25 bc
       0.01960087 0.0053465376 0.004134917 -0.010110592

layers.4.bias f4 [128]
000000 c0 d0 a2 3c 10 f6 de bc 9f 63 85 3c 75 21 4c 3c
       0.01987493 -0.027216941 0.016282855 0.012459149
000010 9f 1e 22 3c c1 db 73 bc 85 7f 06 3c 3d e7 b5 3c
       0.009894996 -0.014883936 0.008209114 0.02220499
000020 71 d6 3d bc 65 90 45 bc 47 5b 7c 3c a4 0c 71 3c
       -0.011586771 -0.012058352 0.015402622 0.014712486
000030 f0 b9 bf 3b 6a b9 20 3c 94 5e fe 3c 21 1f 4a 39
       0.005851023 0.009809831 0.031050958 0.00019275818
000040 33 05 a8 bc 36 71 f0 3c eb 42 b5 3c 25 10 6d bc
       -0.020510292 0.029350858 0.022126636 -0.014469181
000050 5b e0 a3 3c d0 3a cd 3b 9b 90 fb bc b8 36 e2 bc
       0.020004442 0.0062631145 -0.030708602 -0.027613983
000060 5b d6 a1 3c a5 6c 92 bb 2d ca e5 bc 06 da 5d 3a
       0.019755533 -0.004468518 -0.028050506 0.0008462969
000070 d3 11 a7 3c 9c 15 fd 3b 35 b5 1e bc fe 03 a5 38
       0.020394241 0.0077235233 -0.009686758 7.868557e-05
000080 f1 26 9b bb b1 ff f6 bc bc 5f a3 bc 9b f8 44 3c
       -0.004734867 -0.03015122 -0.01994311 0.012022163
000090 1a 37 56 ba e1 8f 33 3c 67 60 4e bc 17 0c ae bc
       -0.0008171663 0.010959596 -0.012596226 -0.021246
0000a0 df 7b b3 3c da 21 91 bc 38 ff 4a 3c ce de 9b ba
       0.021909652 -0.017716337 0.01238995 -0.0011891962
0000b0 82 9a d4 ba ed c3 c1 bc 5b 72 c4 bc 5b fa 91 bb
       -0.0016220363 -0.023652995 -0.02398031 -0.0044548935
0000c0 62 ea a7 bc b9 ba 9d bc 38 64 5a bb 7e 59 e7 3c
       -0.020497505 -0.019254075 -0.0033323895 0.028240915
0000d0 84 97 c2 bc 48 23 12 3c 36 db 32 3c 9f c7 7d bc
       -0.023753889 0.0089195445 0.010916522 -0.015489488
0000e0 0f 7e 99 3c 16 38 25 3c 7e cf b7 3c be c3 d1 3c
       0.018736867 0.010084173 0.022437807 0.025606032
0000f0 c9 be 0a 3c 02 c6 e6 3a bf 3d 24 3b 36 0f a4 bc
       0.008468338 0.0017606618 0.0025061218 -0.020026784
000100 53 b7 82 3c a7 62 40 3c 32 f4 8b 3c 8e ed d5 bc
       0.015956556 0.011742271 0.017084215 -0.026114251
000110 3a e4 8c bc 64 3d f0 bc 8d 99 41 3c 2b 28 1a bc
       -0.01719867 -0.029326148 0.0118163945 -0.009408991
000120 fa 16 ce bc 93 55 c0 bb 82 13 d1 3b 47 d8 2e bc
       -0.02515744 -0.0058695762 0.0063804993 -0.010671682
000130 91 70 b5 3c c6 e1 d4 3a d6 58 43 bc db 80 49 3c
       0.022148402 0.0016241602 -0.011923036 0.012298788
000140 fa b5 b5 bc bb b1 de 3c 1a b1 55 bc 00 71 73 3c
       -0.0221815 0.027184358 -0.013042713 0.014858484
000150 58 b0 2a bc d3 f2 8d 3b 73 55 b5 bb b2 62 6d bc
       -0.01041802 0.0043319254 -0.005533868 -0.014488863
000160 72 02 ae 3c 77 06 da 3c 21 f6 f9 3c 8b 3e 81 3c
       0.0212414 0.02661441 0.030512871 0.015776893
000170 a2 c5 aa 3c a9 ab 02 bb 9c 3d 37 3b 8c 6b 94 bc
       0.020846192 -0.0019938743 0.0027960306 -0.018117689
000180 8c 28 83 bb 0c a0 c7 3c 72 74 04 3c 0e 8e 87 bc
       -0.0040026363 0.024368308 0.008084403 -0.01654723
000190 c7 ba f2 bc b0 7a 95 3a 44 16 42 ba 13 14 c5 bc
       -0.029630078 0.0011404362 -0.00074038305 -0.024057424
0001a0 fe 46 be 3c 89 dd d1 bc 00 5d 2d 3c 50 e6 f2 bc
       0.023227211 -0.025618332 0.010581255 -0.029650837
0001b0 fe 9d 22 bc 43 ca e4 3a 49 90 ca bc ae 1d c8 b9
       -0.009925364 0.0017455298 -0.024727004 -0.00038169086
0001c0 ff a5 3a bc 85 36 0a 3c 05 5e e6 bc ec 8a 74 bc
       -0.011392116 0.00843585 -0.028121004 -0.0149257
0001d0 1b 33 47 3c e0 e4 e4 bc 0f db 33 3c b9 55 9e bc
       0.012158181 -0.027941167 0.010977521 -0.019327985
0001e0 d8 54 83 3c 85 95 4d 3c 9d d9 fa 3c 82 b4 90 3c
       0.016031668 0.012547855 0.030621344 0.017664198
0001f0 42 25 c2 3c e0 76 62 3a 2e 7d d2 ba e7 7a bd 3c
       0.023699407 0.00086389296 -0.0016059035 0.023129893

layers.7.weight f4 [2, 128]
000000 52 45 aa bd c5 3b 83 3c 68 fd 6d 3d 97 1a c1 bb
       -0.08314003 0.016019711 0.058102995 -0.0058930623
000010 f6 0a 91 3d 97 9a 79 bd 98 03 a2 3d b5 12 50 3d
       0.07082169 -0.060938444 0.07910842 0.05079909
000020 32 ec 97 bd b8 69 e6 bc aa b0 87 3d 72 79 20 bd
       -0.074180976 -0.028126583 0.06625493 -0.03917832
000030 54 2f 93 3d 42 24 01 bd e2 02 e2 3c 3d 03 98 3d
       0.071867615 -0.03152872 0.027589265 0.07422493
000040 92 ef 92 3d f0 46 da 3a 5f d6 32 3c 39 22 08 3d
       0.07174601 0.0016653221 0.010915368 0.033235762
000050 1c 39 e6 bc 58 b8 44 3d 12 5e 1f bd 3a e5 97 3c
       -0.028103404 0.048027366 -0.03890807 0.01854192
000060 a8 e3 94 3c b5 71 8c 3c e3 b5 7a bd 84 6f 9c bb
       0.018174961 0.017144063 -0.061208617 -0.004774036
000070 55 1a a2 bd d6 47 c4 bc 1c f8 9a bc 35 30 47 bd
       -0.07915179 -0.023960035 -0.018917136 -0.04862996
000080 63 63 59 bc b3 df 56 3b 6b b6 69 3d 55 0e 0c bd
       -0.013268325 0.0032787144 0.057058733 -0.034193356
000090 32 79 90 3d 50 3e 81 bd f8 6d fa 3c ab 10 9a 3d
       0.07054366 -0.06310713 0.030570015 0.075227104
0000a0 c6 49 bb 3c b4 cc f6 bc 85 3a 63 3d 26 21 32 bd
       0.022862326 -0.030126907 0.05547573 -0.043488644
0000b0 e3 03 f4 bc b2 23 62 3c 92 17 54 bc aa 32 a8 3d
       -0.02978701 0.013802456 -0.012945073 0.082127884
0000c0 9b 88 57 3c 8e 99 9e bd ee e3 83 3d c4 62 9b 3d
       0.013155128 -0.07744132 0.064399585 0.075871974
0000d0 c5 0f 9e 3d 47 3c a3 bd 88 d5 54 3d 1d 13 ab 3d
       0.077178515 -0.07970481 0.05196145 0.08353255
0000e0 1d 86 a6 bd 75 ad 4d 3d 25 f5 35 bd 68 c7 51 3d
       -0.08131049 0.05021425 -0.04442324 0.05121556
0000f0 dc 92 47 3c 87 29 51 bd 28 ea 91 3d 05 bb 32 bc
       0.01218101 -0.051064994 0.0712474 -0.010908847
000100 53 4f d4 bc fc a8 e5 bc d9 a5 05 bd f4 04 82 bd
       -0.025916731 -0.02803468 -0.032628868 -0.06348601
000110 9f 51 75 bc cd 7e 2b bd eb 9a 67 3d e6 00 a4 3d
       -0.014973073 -0.041868974 0.056544226 0.08007984
000120 5b 49 90 3d ef 15 b6 3d c9 e3 32 bd aa 1d 37 bd
       0.070452414 0.08890902 -0.043674264 -0.044706024
000130 46 7e 07 3d d3 88 5b bd 44 42 a4 3d ac 12 91 3d
       0.033079408 -0.053597283 0.08020452 0.070836395
000140 77 21 ac bd 77 3f af 3d a7 a7 ae bd 15 30 b4 3d
       -0.084048204 0.08557027 -0.08528071 0.087982334
000150 30 04 e8 bc ab 49 ef bc 09 b6 22 3d 32 ae 94 bd
       -0.02832231 -0.029209932 0.039724384 -0.072597876
000160 be b1 3c bd 52 15 fa 3b 95 77 f2 3c 8c 36 82 3d
       -0.046067946 0.007631936 0.029598037 0.0635806
000170 1b 71 ef bc a0 bd d0 bc 27 ab 22 3d c5 22 51 ba
       -0.029228738 -0.025481045 0.039714005 -0.00079778983
000180 70 d4 17 3c 31 af 46 3d 7e d7 a5 bd 6c 9d a3 bb
       0.009266958 0.04850692 -0.080977425 -0.0049931314
000190 af 46 84 bd 59 79 31 3d 0a 2a 8f bc 2d d1 74 3d
       -0.06458794 0.043328617 -0.0174761 0.059769798
0001a0 fc 5d a6 bd 89 08 f9 bb ca ae 3b 3b fe 1e 71 bd
       -0.08123395 -0.0075998944 0.0028638118 -0.058867447
0001b0 63 39 fc 3c 7f 8b 30 bc 72 c5 f8 3c 6e da 41 bd
       0.030789083 -0.010775446 0.030367587 -0.04732745
0001c0 39 76 0e 3d b6 34 a6 bd f5 0a 75 bb 08 ce b7 3d
       0.034780715 -0.081155226 -0.0037390564 0.08974844
0001d0 c9 64 9f bd 77 c8 22 bb 54 52 66 3d 10 33 81 3d
       -0.07782895 -0.0024838725 0.056230858 0.063085675
0001e0 92 4c ac 3d 7b 84 d1 bc b2 e4 4b 3d 52 e6 8d 3d
       0.08413042 -0.025575867 0.049778648 0.06928696
0001f0 24 94 83 3d 6c 88 be 3c 10 d5 87 bd 77 0a a7 3d
       0.0642474 0.02325841 -0.06632435 0.08156293
000200 70 8e 30 bd 9b 62 4b bc 96 e1 33 bd a0 80 96 3c
       -0.04310459 -0.012413646 -0.043916307 0.01837188
000210 14 75 76 3c c8 13 9f 3d 3e 96 52 bd 82 b4 b0 3c
       0.015042562 0.07767445 -0.051412813 0.021570448
000220 77 1d 8b 3d bc ee 21 3d 20 b1 a2 3c 63 ba 93 bc
       0.06792729 0.039534315 0.01985985 -0.018033212
000230 7b 1f 1c 3d c4 16 93 bd 1e 02 85 3d 57 d4 b2 3b
       0.03811596 -0.071820766 0.064945444 0.005457442
000240 8c 1c 8e bd 71 ea ab 3d 26 fc 95 3d 44 4c b1 3d
       -0.06939039 0.083943255 0.07323484 0.08657125
000250 f5 44 5e bd 91 a1 a4 3d 27 1d b0 3c cb 09 5c bd
       -0.05426498 0.08038629 0.021498276 -0.053720277
000260 82 99 5a 3b 2b 16 70 bd 0b dd a2 3d ba f2 c2 bc
       0.0033355658 -0.05861489 0.07952317 -0.023797382
000270 37 f2 8b 3d 75 e7 c3 3c 80 22 79 3d ce cb 0d 3d
       0.06833308 0.023914078 0.060823917 0.03461819
000280 15 dc f8 ba 11 04 7e bd 76 8c 88 bd 64 22 e0 3b
       -0.0018986488 -0.062015597 -0.06667416 0.006840037
000290 ee 22 cf bc 56 9e a6 3d 61 69 8d bd 80 db a8 bd
       -0.02528521 0.08135669 -0.06904865 -0.08244991
0002a0 9f 40 86 3d 4f 79 4e bd 58 51 7a bd 3d df 53 3d
       0.06555294 -0.050408658 -0.06111273 0.05172657
0002b0 63 ad cd bb f5 0c ab 3d 5b 35 84 bb 16 56 95 bb
       -0.006276773 0.08352081 -0.004034681 -0.0045573814
0002c0 e0 32 22 bc 91 f2 46 3d 3d dc 62 bd 9f 49 23 3d
       -0.009899825 0.048571173 -0.055385817 0.039865132
0002d0 7c 89 67 bc 3c ff 0a bd 5b bd 33 bd ad 1e 6a 3c
       -0.0141319 -0.033934817 -0.043881755 0.01428954
0002e0 a1 c8 a2 bd 71 2e a9 3d a4 bd 15 3d 6f 16 19 3c
       -0.07948423 0.08260811 0.03655781 0.0093437275
0002f0 37 23 1f bd 81 a2 90 bc 6f 7b 9c 3d a5 28 40 bd
       -0.038851943 -0.017655613 0.076407306 -0.04691376
000300 4b b5 38 3d 47 c3 be bc 41 05 74 3d 24 48 87 bc
       0.04509477 -0.023286475 0.059575323 -0.016513892
000310 af 12 42 bd cd e3 84 3d 52 b4 a6 bd ad 5b ac bc
       -0.0473811 0.06488762 -0.08139862 -0.021039808
000320 aa c6 46 bd 91 98 3d 3d 7d 80 02 bd 39 c8 3f 3a
       -0.048529305 0.046288077 -0.031860817 0.0007315907
000330 8d 4e 9b bc 78 c7 bb bc 26 3a f9 3c 82 f7 b9 3d
       -0.018958354 -0.022922263 0.030423235 0.090804115
000340 ab 8d 32 bd a0 7e a8 3d 61 06 41 3a 50 31 63 3d
       -0.043592136 0.08227277 0.0007363316 0.05546695
000350 6e b5 cf bc e8 f0 88 bd b4 0b a6 3c 67 6a b1 3d
       -0.025355067 -0.06686574 0.020269252 0.08662873
000360 de 3d 4e bd 05 42 90 bd 75 50 8a 3d e5 06 7e bd
       -0.05035197 -0.07043842 0.06753627 -0.062018294
000370 2a 08 62 3d 5d 1f 98 bd 92 cb 41 3d f2 eb 85 3d
       0.055183567 -0.07427857 0.04731328 0.065391436
000380 15 51 0c bd 36 c2 82 bd 93 08 20 bc 88 3f 71 3d
       -0.034257013 -0.06384699 -0.009767669 0.05889848
000390 66 ab ac 3c 61 5c 15 bc 3e 51 96 bb b9 ad 4a bd
       0.021077823 -0.009116263 -0.0045873215 -0.04948208
0003a0 f4 81 4a 3c 10 25 74 bc d0 35 1b 3d 9b 71 b1 3c
       0.012360085 -0.0149014145 0.037893116 0.021660617
0003b0 ba 98 2c bd ae 22 5b bd fa f9 d3 3c 12 b2 15 bd
       -0.04213784 -0.05349987 0.025876034 -0.036546774
0003c0 9e 09 f0 3c 17 d7 e3 bb 2e d4 4d 3d 47 a2 22 3c
       0.02930146 -0.006953131 0.05025118 0.009926385
0003d0 d7 48 97 3d 30 4c 21 bd 17 1d 7d 3d 75 01 0e 3d
       0.0738694 -0.0393793 0.06179532 0.03466936
0003e0 ca 34 9f ba 1d f6 1b 3d 81 87 64 3d ea c7 cf bb
       -0.001214647 0.03807651 0.05579329 -0.0063409703
0003f0 47 77 0c 3d e6 9a ab 3c 96 c1 af 3d 9e 39 b1 bc
       0.03429344 0.020947885 0.085818455 -0.02163392

layers.7.bias f4 [2]
000000 00 47 5a 3c 55 0c 31 bd
       0.013322592 -0.04322465
